model/MNIST/CNN.pt (torch, 656183 bytes, 22 tensors)

weight f4 [32, 1, 5, 5]
-0.013051763 -0.07120526 -0.123633616 0.028472787 -0.09258302 -0.021387432 0.15225618 -0.14660287
0.021615064 -0.12374525 0.05403892 -0.046009906 0.15359715 -0.11030466 0.007246822 0.06233346
0.090780444 -0.10868434 0.0763919 -0.03587088 0.07191122 -0.124486364 0.0062273624 -0.121475145
-0.11053608 0.18695892 0.08321251 0.18901028 -0.12486746 0.07110817 -0.113550365 0.014586445
0.08189258 -0.028643312 -0.014954749 -0.067742646 -0.16993487 -0.009048404 -0.14701606 -0.058703247
0.060287293 0.14436056 -0.07646531 0.19637893 0.026291484 0.13490224 -0.056557022 -0.10115709
0.022385268 0.03066123 -0.007564193 -0.13118406 0.052053012 0.109657876 0.10723206 0.07156142
-0.18950985 0.06568719 0.16257985 -0.1960406 -0.09744107 -0.15135688 -0.104567826 0.084628165
0.16477008 -0.05624489 0.09740412 0.17031798 0.01986718 -0.016859483 0.071370855 -0.046641987
-0.036246113 0.1868349 0.1002906 -0.020596256 0.044103548 -0.03269975 0.0012583145 -0.079191476
0.13920985 -0.12795131 -0.14164981 -0.16753493 0.1926406 0.0063168723 -0.09935494 0.1833416
-0.017417971 -0.14583902 0.09087461 0.20489755 -0.17856671 -0.012407993 -0.08850363 0.06128995
-0.15978692 -0.0045999945 -0.13572486 0.06331322 0.057287827 0.19490331 0.07521874 -0.06569618
0.122665055 0.13627413 -0.1043372 -0.083209515 0.16786481 0.17799444 0.07770025 -0.084638
-0.06864315 -0.070311986 0.06877697 0.047223333 0.20113301 -0.07950263 0.09107197 0.19454283
0.15338904 -0.18845327 0.1872708 0.059479047 -0.023448013 -0.13867597 0.03333542 -0.17469871
0.10743543 -0.14489935 -0.10856272 -0.18262705 0.11371393 0.0019658427 0.101994656 0.13202104
0.141859 -0.1336648 -0.024491552 -0.041507345 -0.027782992 -0.093615584 0.1988451 0.183323
0.18047525 0.16805716 0.14375372 -0.19097999 -0.08487754 0.050462134 -0.12769394 -0.081325345
0.20026124 0.061822373 -0.20031507 -0.14994304 0.026091378 -0.001686959 0.1357284 0.023782685
-0.15275472 0.0054012653 0.11581212 0.12009813 -0.012543645 -0.01732006 0.18869334 0.16636454
0.119908296 -0.009202357 -0.0716765 0.01459223 0.16290437 -0.032080103 0.08975771 -0.1893897
0.14320315 0.11551244 0.19597462 0.03547538 -0.08629528 -0.109329246 0.02876702 0.10190632
0.10199044 0.13780876 0.15947075 0.18963775 0.082708985 -0.11690158 -0.043832127 0.03581654
0.12022024 0.15328589 0.11838333 0.0028489823 -0.160034 0.17041177 -0.19025502 -0.08837387
0.055157248 0.17167097 0.09551468 0.04822999 0.06497138 -0.10111715 0.08157903 0.069524914
0.06994405 -0.1925045 -0.16335106 -0.09145879 0.1422385 0.101031795 0.104938366 -0.15493973
0.04455852 0.09849006 -0.113694765 -0.12946627 -0.18574002 0.14000855 0.100390926 -0.11133706
-0.0026545215 0.018491987 -0.007903335 0.13827546 -0.092710435 -0.029875902 0.1521483 -0.054029483
0.018461881 0.10163195 -0.15648146 0.17131297 -0.14088637 0.12618868 -0.07655171 0.17369547
0.17536642 -0.023771351 0.0009267094 -0.17824143 0.17153962 0.16371165 -0.114885636 0.10330766
0.09119072 -0.096350886 0.12880076 0.16024947 0.11415912 -0.058811758 -0.17907253 0.06387211
00000000: 10d7 55bc 10d4 91bd 9f33 fdbd c33f e93c
00000010: 2b9c bdbd b234 afbc 0be9 1b3e 101f 16be
00000020: 1312 b13c 266e fdbd ea57 5d3d e274 3cbd
00000030: 9248 1d3e 69e7 e1bd c076 ed3b 5f51 7f3d
00000040: 19eb b93d e595 debd 5b73 9c3d 58ed 12bd
00000050: 3146 933d b5f2 febd e70e cc3b f6c7 f8bd
00000060: be60 e2bd 2972 3f3e 526b aa3d e98b 413e
00000070: 83ba ffbd 29a1 913d 188d e8bd fcfb 6e3c
00000080: 4cb7 a73d 61a5 eabc c304 75bc a8bc 8abd
00000090: 6803 2ebe c23f 14bc 618b 16be d172 70bd
000000a0: cfef 763d 41d3 133e d899 9cbd 8f17 493e
000000b0: 3d61 d73c d023 0a3e 56a8 67bd 732b cfbd
000000c0: 4f61 b73c 432d fb3c 0ddd f7bb 1d55 06be
000000d0: 8a35 553d 4f94 e03d 7b9c db3d cb8e 923d
000000e0: df0e 42be 0187 863d 557b 263e debe 48be
000000f0: 2f8f c7bd 4cfd 1abe a827 d6bd 8851 ad3d
00000100: 7db9 283e 0b61 66bd d07b c73d d667 2e3e
00000110: 7fc0 a23c e61c 8abc e22a 923d ab0b 3fbd
00000120: ce76 14bd a651 3f3e 2865 cd3d 7bb9 a8bc
00000130: eca5 343d 2cf0 05bd 07ee a43a 242f a2bd
00000140: 078d 0e3e ab05 03be a60c 11be 478e 2bbe
00000150: 9443 453e c4fd ce3b 9a7a cbbd e6bd 3b3e
00000160: 22b0 8ebc d356 15be 781c ba3d aad0 513e
00000170: 31da 36be e54a 4bbc 6441 b5bd 2c0b 7b3d
00000180: 2f9f 23be 8dbb 96bb 75fb 0abe 5daa 813d
00000190: a4a6 6a3d bc94 473e 480c 9a3d b88b 86bd
000001a0: d137 fb3d 728b 0b3e beae d5bd c069 aabd
000001b0: c1e4 2b3e 2d44 363e 4f21 9f3d b056 adbd
000001c0: c894 8cbd bbff 8fbd f1da 8c3d 416d 413d
000001d0: d0f5 4d3e 46d2 a2bd f183 ba3d 3c36 473e
000001e0: 0412 1d3e e5f9 40be ebc3 3f3e 4da0 733d
000001f0: 0c16 c0bc 1301 0ebe b98a 083d 38e4 32be
00000200: 1b07 dc3d 7f60 14be 2256 debd 9602 3bbe
00000210: d9e2 e83d 5ed5 003b 93e2 d03d 8630 073e
00000220: 7c43 113e 6ddf 08be 82a2 c8bc 9b03 2abd
00000230: 2899 e3bc 87b9 bfbd 0d9e 4b3e 06b9 3b3e
00000240: 81ce 383e 2d17 2c3e 2d34 133e 4290 43be
00000250: 47d4 adbd 62b1 4e3d 33c2 02be e78d a6bd
00000260: 4811 4d3e 7539 7d3d 651f 4dbe ab8a 19be
00000270: 96bd d53c f31c ddba 63fc 0a3e e8d3 c23c
00000280: bc6b 1cbe 19fd b03b e82e ed3d 02f6 f53d
00000290: dc83 4dbc cce2 8dbc d438 413e 775b 2a3e
000002a0: 7b92 f53d 7cc5 16bc 21cb 92bd 4014 6f3c
000002b0: 67d0 263e 6d66 03bd e4d2 b73d 60ef 41be
000002c0: d9a3 123e c991 ec3d 92ad 483e a24e 113d
000002d0: 94bb b0bd 03e8 dfbd d0a8 eb3c 43b4 d03d
000002e0: 5de0 d03d bd1d 0d3e 4d4c 233e 6630 423e
000002f0: 5463 a93d 186a efbd 5189 33bd 5db4 123d
00000300: 0736 f63d faf6 1c3e f672 f23d feb5 3a3b
00000310: f4df 23be 6c80 2e3e 36d2 42be 5cfd b4bd
00000320: 91ec 613d 84ca 2f3e 339d c33d cf8c 453d
00000330: b70f 853d 8216 cfbd e812 a73d 1463 8e3d
00000340: d33e 8f3d e61f 45be 8045 27be bf4e bbbd
00000350: f8a6 113e c2e9 ce3d ede9 d63d 85a8 1ebe
00000360: ff82 363d 28b5 c93d cdd8 e8bd ce92 04be
00000370: a232 3ebe 675e 0f3e c299 cd3d af04 e4bd
00000380: 7bf7 2dbb 827c 973c fd7c 01bc 1598 0d3e
00000390: f8de bdbd 4fbe f4bc c4cc 1b3e 054e 5dbd
000003a0: 5f3d 973c 6924 d03d ad3c 20be ab6c 2f3e
000003b0: 8444 10be 9b37 013e 25c7 9cbd 3add 313e
000003c0: 4193 333e 23bc c2bc 6aee 723a ec84 36be
000003d0: 15a8 2f3e 07a4 273e 2949 ebbd f792 d33d
000003e0: 33c2 ba3d 9d53 c5bd 59e4 033e 7018 243e
000003f0: 42cc e93d 99e4 70bd ca5e 37be 61cf 823d

bias f4 [32]
0.046637997 0.10911872 0.008501471 0.07963169 -0.16730738 0.08718394 0.044170417 -0.15379006
0.14586052 0.030265326 0.07971486 0.12087113 -0.13574935 -0.01729056 0.020885304 0.056260224
0.04445588 -0.10252441 -0.1377104 0.08650409 -0.08925435 0.0030220482 -0.09703578 -0.114687964
-0.13631226 -0.12715958 -0.12328877 0.11833964 -0.16758493 0.17105249 0.1365721 -0.18080206
00000000: 7c07 3f3d a379 df3d c149 0b3c f115 a33d
00000010: a052 2bbe 7e8d b23d 0aec 343d 247b 1dbe
00000020: 765c 153e fdee f73c 8b41 a33d 488b f73d
00000030: e101 0bbe efa4 8dbc a817 ab3c 1f71 663d
00000040: 5e17 363d 51f8 d1bd f503 0dbe 0e29 b13d
00000050: fcca b6bd 8e0d 463b b2ba c6bd 86e1 eabd
00000060: 7195 0bbe 1f36 02be d37e fcbd 0e5c f23d
00000070: 629b 2bbe 6228 2f3e 8ed9 0b3e 2d24 39be

weight f4 [32]
1.004854 0.99909675 0.9987761 1.0041888 0.9988324 1.0060177 1.001765 0.99750054
1.0019133 0.9980582 1.0019007 0.9965977 1.0002497 0.9959741 1.0007482 1.0000528
0.9978508 0.99738544 1.0038006 0.9978201 1.0037422 0.99811643 1.004947 1.0032805
1.0032822 1.0004303 0.9995621 0.99800134 0.99498254 0.99957526 0.99830586 0.9968349
00000000: 0e9f 803f cec4 7f3f caaf 7f3f 4289 803f
00000010: 7bb3 7f3f 30c5 803f d639 803f 325c 7f3f
00000020: b23e 803f be80 7f3f 483e 803f 0721 7f3f
00000030: 2f08 803f 29f8 7e3f 8418 803f bb01 803f
00000040: 2673 7f3f a754 7f3f 8a7c 803f 2371 7f3f
00000050: a07a 803f 8f84 7f3f 1aa2 803f 7f6b 803f
00000060: 8d6b 803f 1a0e 803f 4de3 7f3f 047d 7f3f
00000070: 2db7 7e3f 2ae4 7f3f f990 7f3f 9230 7f3f

bias f4 [32]
0.0020303517 0.0014438322 -0.00083145656 0.0020033878 0.003597088 0.0018836637 0.00477133 -0.0012408921
0.0031195718 0.001041754 0.0025414939 -0.002857916 0.0011164215 -0.0017255659 0.0034426288 0.0056389463
0.0009979234 0.00287579 0.0037804183 -0.0022294498 0.005554401 0.003791798 0.004633644 -0.0028182757
0.00373898 0.0026398466 0.0028088556 -0.001706498 0.0036902598 0.00024619643 -0.0013801767 -0.0012415039
00000000: a60f 053b f83e bd3a 1bf6 59ba 454b 033b
00000010: 1fbd 6b3b 44e5 f63a d158 9c3b 6ea5 a2ba
00000020: bb71 4c3b 778b 883a 318f 263b e04b 3bbb
00000030: e454 923a 622c e2ba ba9d 613b e9c6 b83b
00000040: c1cc 823a c077 3c3b e5c0 773b f61b 12bb
00000050: b101 b63b d07f 783b d3d5 973b d2b2 38bb
00000060: ad09 753b 4701 2d3b c714 383b 92ac dfba
00000070: 49d8 713b ed13 8139 0ce7 b4ba f5b9 a2ba

running_mean f4 [32]
0.39185667 -0.07139485 -0.273353 0.35978168 -0.985627 -0.05022276 -0.33064666 -0.75090396
0.05088611 -0.3859223 -0.12805772 -0.14557107 -0.42098698 -0.12516381 0.033625107 -0.49286824
0.030135775 -0.6666039 -0.004709284 0.25106546 -0.69625676 -0.24143681 -0.5761695 0.06214509
0.508177 0.41402858 -0.03417758 0.616936 -0.8211503 0.10346588 0.005242172 0.14374681
00000000: 70a1 c83e 7737 92bd edf4 8bbe 4e35 b83e
00000010: 0d52 7cbf 61b6 4dbd 854a a9be 3e3b 40bf
00000020: f46d 503d 9c97 c5be 9021 03be 9510 15be
00000030: 9b8b d7be f12a 00be 7bba 093d 3a59 fcbe
00000040: 4ddf f63c 8ea6 2abf 5650 9abb a78b 803e
00000050: e23d 32bf 363b 77be d87f 13bf da8b 7e3d
00000060: e317 023f 8efb d33e cafd 0bbd 85ef 1d3f
00000070: e836 52bf ebe5 d33d 87c6 ab3b 5d32 133e

running_var f4 [32]
0.09379347 0.033197485 0.1370112 0.086161286 0.30669326 0.083949514 0.2639981 0.34739125
0.091809034 0.113591954 0.21620321 0.0626759 0.12852092 0.035861183 0.077498294 0.25444105
0.044539988 0.17601277 0.091532625 0.26178187 0.21274386 0.05123977 0.24296111 0.09288474
0.29561436 0.3277663 0.048648622 0.16532859 0.2846329 0.14209858 0.03225419 0.06577114
00000000: ca16 c03d 16fa 073d aa4c 0c3e 5475 b03d
00000010: e606 9d3e b9ed ab3d c22a 873e 44dd b13e
00000020: 6006 bc3d e6a2 e83d 6064 5d3e 395c 803d
00000030: fd9a 033e 2de3 123d 6db7 9e3d 1946 823e
00000040: 906f 363d b13c 343e 7575 bb3d 4608 863e
00000050: 87d9 593e cbe0 513d ccca 783e 5b3a be3d
00000060: c45a 973e fcd0 a73e c743 473d e64b 293e
00000070: 67bb 913e 4a82 113e f81c 043d 05b3 863d

weight f4 [64, 32, 3, 3]
-0.02441524 -0.005886859 0.0064168447 0.059285495 0.020371052 -0.039723814 -0.005117987 -0.049117062
0.0013359361 0.035745207 -0.020115491 0.05573256 0.04015066 -0.031649075 -0.022221915 0.033175647
-0.027183076 -0.057095297 0.017691655 -0.049911693 0.030359209 -0.035793766 0.0483415 0.046017807
0.024973849 0.011209131 -0.021351911 0.007771965 -0.055836577 0.019219156 0.051211003 -0.054042693
-0.01360419 -0.038438354 -0.010088527 0.051956646 0.019887066 0.0073216697 -0.03185348 -0.058487307
-0.06225948 0.042708576 -0.0022506341 0.019755984 -0.0019650608 0.027705498 0.010786216 0.04467468
0.016175374 -0.0044332948 -0.0072956556 -0.05084474 -0.003932611 -0.040124517 0.009155608 0.010446544
-0.059039596 -0.03287641 -0.04387472 0.042846445 -0.015993439 9.767689e-05 0.054726202 -0.030153703
-0.005988021 0.04512981 -0.039286368 -0.039891813 0.0026491364 0.012975996 -0.048985455 -0.013180611
0.0179394 0.041617677 0.020793285 0.011064645 -0.016440323 -0.0071598706 0.0150889885 -0.036448427
0.019734653 0.010676145 -0.054531395 0.057035726 -0.02960944 0.04616779 -0.04911456 -0.05639452
-0.00871619 -0.052311487 0.026676778 0.05614906 0.010679408 -0.014571688 -0.028328905 -0.021639723
-0.014633051 0.055609196 0.04577103 -0.023235045 0.04727115 0.020362802 0.05453787 -0.02418598
-0.057695977 -0.04977752 0.018706173 -0.014957647 -0.044287115 -0.017442875 -0.05315295 -0.040386073
0.030987045 0.015031699 0.038288243 0.05316709 -0.023325527 0.0019917192 0.021574164 -0.04159974
0.021887042 -0.037075583 0.04991665 0.008114688 -0.03484115 0.051687352 -0.044172656 0.060330734
-0.040878963 -0.005435201 -0.018737594 0.041103154 0.035777576 -0.056683958 0.028111458 -0.040113073
-0.008158602 0.0312743 -0.04217963 0.024046345 -0.04314505 -0.04527394 -0.00047607973 -0.06075373
0.027754748 0.03433516 0.01506924 -0.034008555 -0.034849074 0.0117843505 -0.030275865 -0.0277218
-0.037278023 -0.038921684 -0.050367765 0.0067873388 -0.0034480789 -0.033420354 0.03333036 0.05361217
-0.012101877 -0.012520993 -0.05987989 -0.020479485 0.030710699 0.027699184 -0.0077058934 0.017877806
0.03387416 -0.046624757 -0.04277446 -0.026853586 -0.04559725 -0.0526024 -0.061522406 0.05346494
-0.024482721 0.056247294 0.00022355039 -0.031346213 -0.05688271 -0.051222313 2.9817782e-05 0.043704968
0.039746705 -0.059088334 0.024208559 -0.052330997 -0.03672693 -0.03622327 0.054908864 0.016319007
-0.020726599 -0.03878107 -0.017275145 -0.046376426 0.00421354 0.0040991576 -0.008041755 0.019334357
0.0030112355 0.02817707 0.044131365 -0.013978504 0.061591756 0.0254483 0.03554308 -0.05925094
-0.04247631 0.053078834 0.044670053 0.028017633 0.004734422 0.021241358 0.027120695 -0.010919561
-0.05007907 0.010394092 -0.030063711 -0.010325838 0.054273084 0.029132398 0.008543119 -0.026111513
0.0019465513 -0.028590528 -0.023402877 0.04924161 0.052697554 -0.0041399663 0.054542452 -0.057756055
-0.010137079 0.02655823 0.019644825 -0.021838717 0.045664173 -0.024449516 0.0073358724 0.0018859437
-0.00881658 -0.022473976 -0.05201998 0.012945686 0.01823445 0.01873478 -0.028729463 0.04228218
-0.050263543 -0.044042725 0.044314187 -0.04577985 -0.041679878 -0.049588747 -0.053537093 0.02512554
00000000: 7802 c8bc 8de6 c0bb 6544 d23b 59d5 723d
00000010: 31e1 a63c 70b5 22bd c9b4 a7bb f92e 49bd
00000020: 941a af3a 9169 123d 3ec9 a4bc d347 643d
00000030: 0575 243d 76a2 01bd bc0a b6bc 30e3 073d
00000040: 0baf debc c2dc 69bd 17ee 903c 3470 4cbd
00000050: e0b3 f83c 7c9c 12bd bd01 463d 2b7d 3c3d
00000060: f595 cc3c 81a6 373c 34ea aebc f8ab fe3b
00000070: e5b4 64bd 7e71 9d3c a1c2 513d df5b 5dbd
00000080: 1ce4 5ebc 8971 1dbd 594a 25bc 7ed0 543d
00000090: 33ea a23c 9eea ef3b cb78 02bd 6390 6fbd
000000a0: cc03 7fbd 30ef 2e3d 607f 13bb 4dd7 a13c
000000b0: 40c8 00bb a4f6 e23c abb8 303c ccfc 363d
000000c0: 3882 843c 2c45 91bb 6510 efbb 9342 50bd
000000d0: 22dd 80bb 9b59 24bd 6701 163c fb27 2b3c
000000e0: 81d3 71bd 6aa9 06bd fab5 33bd c17f 2f3d
000000f0: ac04 83bc e2d7 cc38 9528 603d e604 f7bc
00000100: 2937 c4bb 09da 383d beea 20bd 9965 23bd
00000110: 229d 2d3b 4699 543c f9a4 48bd 7df3 57bc
00000120: a6f5 923c 4c77 2a3d ae56 aa3c 7c48 353c
00000130: dbad 86bc 599d eabb ce37 773c f24a 15bd
00000140: 91aa a13c ffea 2e3c 505c 5fbd 4b9e 693d
00000150: 7f8f f2bc 701a 3d3d 592c 49bd f1fd 66bd
00000160: 5ace 0ebc 9244 56bd 4289 da3c 8ffc 653d
00000170: aff8 2e3c 17be 6ebc 0512 e8bc ca45 b1bc
00000180: 77bf 6fbc 78c6 633d 677a 3b3d 6c57 bebc
00000190: 659f 413d e4cf a63c 1a63 5f3d ad21 c6bc
000001a0: 9e52 6cbd 83e3 4bbd b03d 993c eb10 75bc
000001b0: 6866 35bd 5ce4 8ebc e8b6 59bd de6b 25bd
000001c0: 8bd8 fd3c 8447 763c 22d4 1c3d bcc5 593d
000001d0: 2d15 bfbc 8187 023b 4dbc b03c 7d64 2abd
000001e0: 744c b33c 91dc 17bd 6775 4c3d 78f3 043c
000001f0: 98b5 0ebd 1eb6 533d 63ee 34bd 5c1d 773d
00000200: b370 27bd c519 b2bb 957f 99bc c85b 283d
00000210: 828b 123d 702d 68bd 004a e63c 9b4d 24bd
00000220: a8ab 05bc 7b19 003d 8cc4 2cbd d7fc c43c
00000230: ddb8 30bd 2b71 39bd 579a f9b9 e7d8 78bd
00000240: ed5d e33c 06a3 0c3d f9e4 763c 8e4c 0bbd
00000250: e7bd 0ebd 2613 413c 1705 f8bc d418 e3bc
00000260: d7b0 18bd 586c 1fbd 6e4e 4ebd 5368 de3b
00000270: 2af9 61bb c8e3 08bd 6a85 083d 6f98 5b3d
00000280: f346 46bc da24 4dbc 9e44 75bd 98c4 a7bc
00000290: 0195 fb3c 66e9 e23c b881 fcbb 7a74 923c
000002a0: a2bf 0a3d 9af9 3ebd 4634 2fbd 0dfc dbbc
000002b0: 2fc4 3abd 9d75 57bd ebfe 7bbd 0efe 5a3d
000002c0: fd8f c8bc 9063 663d da68 6a39 e364 00bd
000002d0: d8fd 68bd 7dce 51bd 3321 fa37 fb03 333d
000002e0: 71cd 223d 9c06 72bd 0751 c63c 0759 56bd
000002f0: fa6e 16bd da5e 14bd 1ee8 603d 70af 853c
00000300: d4ca a9bc e6d8 1ebd 9b84 8dbc 35f5 3dbd
00000310: bc11 8a3b 3a52 863b 91c1 03bc 1663 9e3c
00000320: 2658 453b 99d3 e63c 17c3 343d 1806 65bc
00000330: a347 7c3d f478 d03c 9f95 113d 1db1 72bd
00000340: a4fb 2dbd 3169 593d f2f7 363d 3c85 e53c
00000350: 3623 9b3b 5b02 ae3c 382c de3c f5e7 32bc
00000360: b61f 4dbd fb4b 2a3c 2c48 f6bc b42d 29bc
00000370: 744d 5e3d 11a7 ee3c 70f8 0b3c d0e7 d5bc
00000380: 6c23 ff3a af36 eabc 64b7 bfbc 92b1 493d
00000390: 64d9 573d 8ea8 87bb e867 5f3d 9d91 6cbd
000003a0: fe15 26bc a590 d93c 2fee a03c 1ce7 b2bc
000003b0: 5b0a 3b3d 5a4a c8bc c261 f03b c531 f73a
000003c0: 6b73 10bc 581b b8bc e712 55bd 241a 543c
000003d0: 6a60 953c ae79 993c 0d5a ebbc 1430 2d3d
000003e0: 25e1 4dbd 2566 34bd cb82 353d a783 3bbd
000003f0: 85b8 2abd 921d 4bbd b649 5bbd 14d4 cd3c

bias f4 [64]
0.04944546 -0.052959375 0.047608547 -0.0031840347 -0.042145006 -0.0532617 0.03429978 -0.037088156
0.0014474879 -0.046010375 0.049365688 -0.009332821 0.02683649 -0.057684183 -0.016988186 0.05799294
0.018016262 0.042352624 0.026033346 0.048989832 0.0064462065 0.01299952 -0.003642065 0.038035072
-0.054096278 0.026405388 0.026512086 -7.9890684e-05 -0.011469108 -0.0519774 0.021651478 0.05367196
-0.007110055 -0.012389049 -0.0031693229 -0.052417476 0.01231763 0.012620748 -0.03251243 -0.029727135
0.05284333 -0.0020361943 -0.015946414 0.024375418 -0.04254036 0.034136746 -0.027244767 -0.020837614
-0.057815645 0.032684926 0.04918623 0.00068038475 -0.033964343 -0.0010061155 0.01850592 -0.022779016
0.049447566 -0.03688648 -0.032190096 -0.015821801 -0.013816741 0.057389595 -0.009924885 0.042743716
00000000: 5387 4a3d eeeb 58bd 2e01 433d 3dab 50bb
00000010: 3ea0 2cbd f128 5abd ed7d 0c3d c0e9 17bd
00000020: a2b9 bd3a 6075 3cbd ad33 4a3d b0e8 18bc
00000030: 33d8 db3c 4046 6cbd cf2a 8bbc 018a 6d3d
00000040: d796 933c f279 2d3d e243 d53c 90a9 483d
00000050: b33a d33b f0fb 543c b6af 6ebb aaca 1b3d
00000060: 0f94 5dbd 1d50 d83c e02f d93c fc8a a7b8
00000070: ede8 3bbc 41e6 54bd 715e b13c 21d7 5b3d
00000080: 77fb e8bb 70fb 4abc 6ab4 4fbb b5b3 56bd
00000090: e3cf 493c 41c7 4e3c c12b 05bd 5286 f3bc
000000a0: 3f72 583d ac71 05bb 0ea2 82bc f5ae c73c
000000b0: cd3e 2ebd f9d2 0b3d 6b30 dfbc a5b3 aabc
000000c0: 19d0 6cbd a1e0 053d 8077 493d d95b 323a
000000d0: 321e 0bbd a2df 83ba ba99 973c 0f9b babc
000000e0: 8889 4a3d 4716 17bd c3d9 03bd b99c 81bc
000000f0: 9d5f 62bc 5a11 6b3d fc9b 22bc 0914 2f3d

weight f4 [64]
0.99964905 0.99570286 1.0049015 0.99995875 1.0064399 1.0029072 0.99844253 0.99732304
1.0049111 1.0063299 1.0071138 0.9969555 0.9963965 0.9961558 1.0014894 0.99469256
1.0025171 1.0024607 0.996081 1.0038342 1.0041069 0.99273384 0.99880326 1.0050268
0.9995052 0.99692035 1.0013212 1.0030476 0.9981048 1.0036373 0.99741185 1.0049387
0.9958726 0.99887073 0.99966586 1.0030806 0.99908936 1.0056617 0.9985969 1.0065675
1.0016303 1.0068616 1.002171 1.002697 0.99741685 1.0014932 0.99617004 1.0000197
0.99671805 0.9981772 0.9945551 0.9945121 1.0028355 0.9969832 1.0026542 0.99961525
0.99557877 1.0045416 1.0043712 1.0006517 0.9965535 0.9981246 0.9944764 1.0020468
00000000: 00e9 7f3f 62e6 7e3f 9da0 803f 4cfd 7f3f
00000010: 06d3 803f 435f 803f ee99 7f3f 9050 7f3f
00000020: eda0 803f 6bcf 803f 1be9 803f 7a38 7f3f
00000030: d713 7f3f 1104 7f3f ce30 803f 2ca4 7e3f
00000040: 7b52 803f a250 803f 2aff 7e3f a47d 803f
00000050: 9386 803f ce23 7e3f 92b1 7f3f b8a4 803f
00000060: 93df 7f3f 2c36 7f3f 4b2b 803f dd63 803f
00000070: cc83 7f3f 3077 803f 6256 7f3f d5a1 803f
00000080: 82f1 7e3f feb5 7f3f 1aea 7f3f f264 803f
00000090: 52c4 7f3f 86b9 803f 0ca4 7f3f 34d7 803f
000000a0: 6c35 803f d7e0 803f 2447 803f 6058 803f
000000b0: b656 7f3f ee30 803f 0005 7f3f a500 803f
000000c0: ea28 7f3f 8a88 7f3f 2a9b 7e3f 5898 7e3f
000000d0: ea5c 803f 4a3a 7f3f f956 803f c9e6 7f3f
000000e0: 40de 7e3f d294 803f 3c8f 803f 5b15 803f
000000f0: 211e 7f3f 1885 7f3f 0196 7e3f 1243 803f

bias f4 [64]
-0.002916687 -0.0015457332 0.0020633414 -0.0014137705 0.005979006 -0.0024686586 -0.0001685038 -0.0034194835
0.0022469978 -0.0015633947 0.003970107 -0.0008733769 -0.0003985396 0.0028096107 0.0029310614 -0.0051967977
-0.0012519406 0.0006544495 -0.0028744533 0.004753616 0.003456963 -0.0050961976 0.0041635004 0.004977803
0.001712242 -0.0031204943 -0.0010328026 0.0031746936 -0.0027157324 0.002715554 -0.003143081 0.0021067758
-0.00415934 -0.00288523 0.0031104027 -0.003108973 0.0043431437 -0.0010198589 -0.00071120635 0.002680198
-0.0048035556 0.0059730923 -0.0015708412 0.005793288 -0.0044671404 0.005703759 -0.0021029755 -0.003542603
0.0012984906 -0.0002251644 -0.004408402 -0.0048226956 0.002246707 0.002890039 0.0004894186 0.0047832504
-0.0042377464 0.004933479 -0.000490249 0.0052403267 -0.0045229606 -0.0032253484 -0.0055706445 0.0015052484
00000000: e325 3fbb 339a caba 2039 073b 444e b9ba
00000010: 8aeb c33b 38c9 21bb 65b0 30b9 6a19 60bb
00000020: 5e42 133b d2ea ccba ac17 823b 55f3 64ba
00000030: 14f3 d0b9 7221 383b 0d17 403b e649 aabb
00000040: 2818 a4ba 5d8f 2b3a 5361 3cbb 39c4 9b3b
00000050: 378e 623b 01fe a6bb f96d 883b d71c a33b
00000060: 4f6d e03a 3581 4cbb 1b5f 87ba 850e 503b
00000070: 6efa 31bb 70f7 313b 26fc 4dbb d511 0a3b
00000080: 134b 88bb 2016 3dbb e6d7 4b3b e9bf 4bbb
00000090: ee50 8e3b c9ac 85ba 4070 3aba 43a6 2f3b
000000a0: 2567 9dbb eeb9 c33b afe4 cdba 9fd5 bd3b
000000b0: 1761 92bb 99e6 ba3b 13d2 09bb 042b 68bb
000000c0: 1d32 aa3a 1c1a 6cb9 5b74 90bb b407 9ebb
000000d0: 7d3d 133b cf66 3d3b 544c 003a d0bc 9c3b
000000e0: cbdc 8abb 05a9 a13b 0e84 00ba 0cb7 ab3b
000000f0: 5835 94bb 5e60 53bb f489 b6bb c14b c53a

running_mean f4 [64]
-0.46456823 0.5868062 0.4543774 -0.7433875 -0.44132555 -0.061216284 -0.52856606 0.5034057
-0.3943604 -0.7852845 -0.24282692 0.3300039 -0.027419154 -0.2633683 0.115693994 -0.10161722
0.59948033 -0.14616765 0.059306845 0.1919099 -0.4080589 0.6438481 0.4501753 -0.26904523
-0.1029248 -0.15172571 0.12232178 -0.71645826 -0.24331215 0.33783072 0.24703906 -0.1369722
0.10130884 0.4971449 0.67324734 0.23663095 -0.25084126 -0.21739262 0.034449168 -0.14949553
0.4281605 0.24596693 0.32951832 -0.18857357 0.109745465 0.22422498 0.32482338 0.17073981
-0.33738977 0.2084671 -0.22810021 -0.22905014 -0.53946763 0.13726242 0.3947343 0.08145857
0.3223234 -0.43139887 -0.68710905 0.04796103 -0.6312804 0.4343982 0.32148245 -0.5482283
00000000: e3db edbe ee38 163f 28a4 e83e a54e 3ebf
00000010: 6cf5 e1be edbd 7abd 1b50 07bf 32df 003f
00000020: 9be9 c9be 6808 49bf 9fa7 78be 45f6 a83e
00000030: 229e e0bc 36d8 86be f9f0 ec3d b01c d0bd
00000040: 8b77 193f f9ac 15be bceb 723d 0784 443e
00000050: 19ed d0be 3bd3 243f 607d e63e 4cc0 89be
00000060: 3dca d2bd fc5d 1bbe d783 fa3d cf69 37bf
00000070: d226 79be 26f8 ac3e cff7 7c3e 7142 0cbe
00000080: 027b cf3d c789 fe3e f059 2c3f 624f 723e
00000090: 446e 80be 2c9c 5ebe 921a 0d3d 5b15 19be
000000a0: da37 db3e c1de 7b3e a0b6 a83e 6e19 41be
000000b0: 3bc2 e03d 3c9b 653e 404f a63e 6bd6 2e3e
000000c0: 5abe acbe 6678 553e 1a93 69be 1f8c 6abe
000000d0: 8d1a 0abf 858e 0c3e 9d1a ca3e c0d3 a63d
000000e0: 9307 a53e 50e0 dcbe 61e6 2fbf c972 443d
000000f0: 989b 21bf 7169 de3e 5999 a43e b158 0cbf

running_var f4 [64]
0.3392636 0.8383125 0.20280734 0.5999866 0.2191008 0.22405079 0.42409602 0.18583664
0.3558851 0.7606548 0.23932582 0.17279361 0.1389804 0.11173772 0.41640297 0.16272254
0.3865262 0.13392726 0.17106618 0.34817952 0.1645145 0.47616082 0.13717282 0.1125705
0.2324769 0.13910869 0.14664266 0.5952782 0.20077285 0.23622122 0.30889067 0.36903718
0.21194555 0.47903535 0.2507774 0.35190898 0.23177043 0.21653704 0.15371914 0.08918407
0.26176825 0.15020062 0.25210193 0.19960406 0.09328881 0.39927956 0.51188403 0.30460575
0.18254884 0.2803974 0.10338575 0.34372565 0.25478765 0.12753312 0.3337343 0.15983798
0.13452604 0.19352372 0.30416906 0.1673391 0.5524979 0.22216046 0.33365104 0.22034103
00000000: f5b3 ad3e a69b 563f baac 4f3e b998 193f
00000010: f65b 603e 926d 653e 1d23 d93e f64b 3e3e
00000020: 9236 b63e 46ba 423f d411 753e cff0 303e
00000030: e150 0e3e bfd6 e43d c532 d53e bda0 263e
00000040: c3e6 c53e 3a24 093e f92b 2f3e 9644 b23e
00000050: 7d76 283e 5acb f33e 0877 0c3e 5d8b e63d
00000060: 6d0e 6e3e 8272 0e3e 7e29 163e 2764 183f
00000070: 6697 4d3e fae3 713e eb26 9e3e 71f2 bc3e
00000080: 4108 593e 1f44 f53e e565 803e 6a2d b43e
00000090: 3a55 6d3e e3bb 5d3e 8d68 1d3e 23a6 b63d
000000a0: 7d06 863e 31ce 193e 8113 813e 0265 4c3e
000000b0: 340e bf3d 5f6e cc3e d50a 033f 49f5 9b3e
000000c0: 15ee 3a3e 3f90 8f3e e8bb d33d cffc af3e
000000d0: 8773 823e 0b98 023e 39df aa3e 91ac 233e
000000e0: 32c1 093e 152b 463e 0cbc 9b3e f15a 2b3e
000000f0: 8170 0d3f 087e 633e 4fd4 aa3e 14a1 613e

weight f4 [128, 64, 3, 3]
0.0020067855 -0.008622317 0.005790211 -0.0061366907 0.031812306 -0.00262308 -0.044248182 -0.031946424
0.029614422 0.022343796 0.037023973 0.03429498 0.034051813 0.032309346 -0.015153221 0.03570443
0.03549079 0.033350233 0.0069991867 -0.0006078659 -0.036421187 -0.044226676 -0.029699342 0.002295802
-0.020487146 -0.043818172 0.0009914554 0.029130206 -0.018146366 0.022698767 0.026979351 -0.027883038
0.0106000835 0.03372723 -0.0136447055 0.008344717 -0.00467631 -0.021331606 -0.017702835 -0.016459787
-0.012853421 -0.018895665 -0.0027987908 -0.027774943 0.0116139995 0.006686712 -0.017388523 0.041673418
-0.033771046 0.039855633 0.0059146537 0.021155443 -0.031452164 -0.029126322 -0.017453065 0.017200286
-0.01993855 -0.0005864814 -0.04294144 0.031777307 -0.015994035 -0.022268634 -0.027597126 0.008758696
0.039775707 -0.0013445985 -0.004660797 0.024887605 -0.034196693 -0.01387122 0.007950365 0.0053351265
0.03168941 -0.01424355 0.006234947 0.028753363 -0.037581757 -0.034971796 0.036041383 0.014954646
0.017204912 0.031557918 0.029139033 0.010790092 -0.021815535 0.01658878 -0.019533485 0.0064966925
0.020248504 -0.03772929 0.012269004 -0.027765706 0.007910136 -0.02040797 0.029257786 0.030898156
-0.03052779 0.025759717 -0.004443779 -0.024018826 -0.005766344 -0.01694843 0.019590426 0.029587897
-0.0155458255 -0.015052639 0.029526493 -0.016557949 0.02215816 0.0066864225 0.0012529759 0.022368694
-0.015892971 0.013589977 -0.025739215 0.025250137 -0.027787784 -0.040513746 -0.03241431 -0.012522521
-0.032912247 0.0020550005 -0.02070749 -0.0031097473 0.034559406 0.0067150914 -0.0005477498 0.032080557
0.030783359 0.009341421 -0.019956922 -0.032251667 -0.013633412 -0.019485883 -0.012637111 0.02407588
0.019423282 -0.009938365 0.011420634 -0.0025164024 0.019528868 0.038652655 -0.00027652472 0.015561272
-0.01111353 -0.03601029 0.028555749 0.024945354 -0.0038535912 0.010364036 0.023457717 -0.0066082743
0.02156832 0.033247847 0.008365204 0.017931262 -0.014010203 0.03513632 -0.01708221 0.0038542657
-0.008263782 0.04513573 -0.031231042 0.028503515 -0.03885655 -0.016864005 -0.031376563 -0.037902325
0.036023024 -0.02235814 0.0050293347 0.043105986 0.01661394 -0.023878926 0.00715083 0.028684912
-8.391758e-05 0.018784087 -0.03225377 0.01740049 0.018188406 -0.029990304 0.0061247135 0.04254487
-0.03386911 0.018610109 0.027699906 -0.002756678 0.014591952 0.010818666 -0.0061465125 0.017500447
0.03668158 0.024193158 -0.033228997 0.02225381 -0.0037202016 -0.0077285278 0.027751375 0.0025551887
-0.011320796 0.0040954864 0.016419917 -0.013290916 -0.024768358 0.013199158 -0.02621936 0.005375844
-0.021717444 -0.026533388 0.03121017 0.018143216 -0.0023967987 -0.022568572 0.0072904043 0.013763898
0.03399842 -0.026182191 -0.022847144 0.034834903 -0.002758477 -0.030557161 -0.03953333 -0.045442104
-0.034794204 0.024319582 0.034325067 -0.0146385515 0.038900934 -0.019074563 0.013134304 0.03864015
-0.03730182 0.014839334 -0.033482827 -0.040131718 -0.030455032 0.03570984 0.0072393157 -0.013288251
-0.013271097 0.016816437 0.026720509 0.0024118663 0.031047352 0.0094749145 -0.024746051 -0.027901033
-0.010122732 0.005652522 0.016824152 0.0065154857 0.007970217 -0.023723328 0.01506633 -0.034744244
00000000: 4684 033b 9e44 0dbc cfbb bd3b 4b16 c9bb
00000010: 9f4d 023d fbe7 2bbb 953d 35bd 41da 02bd
00000020: f299 f23c 560a b73c 73a6 173d e578 0c3d
00000030: ea79 0b3d ce56 043d 3745 78bc cf3e 123d
00000040: ca5e 113d 419a 083d 6f59 e53b 3159 1fba
00000050: 622e 15bd 0827 35bd 094c f3bc 2b75 163b
00000060: a9d4 a7bc af7a 33bd b9f3 813a 78a2 ee3c
00000070: b0a7 94bc c4f2 b93c cd03 dd3c f86a e4bc
00000080: f9ab 2d3c 9025 0a3d 0b8e 5fbc 48b8 083c
00000090: bb3b 99bb 9fbf aebc 8905 91bc add6 86bc
000000a0: 2897 52bc 15cb 9abc eb6b 37bb 4788 e3bc
000000b0: a548 3e3c 351c db3b 6072 8ebc bfb1 2a3d
000000c0: 8253 0abd a93f 233d b6cf c13b 2e4e ad3c
000000d0: fcd3 00bd 539a eebc bbf9 8ebc 9de7 8c3c
000000e0: 2c56 a3bc 1abe 19ba 5de3 2fbd ec28 023d
000000f0: ec05 83bc b66c b6bc 5e13 e2bc a280 0f3c
00000100: daeb 223d 3d3d b0ba 99b9 98bb 17e1 cb3c
00000110: d511 0cbd 1d44 63bc 3f42 023c 49d2 ae3b
00000120: c1cc 013d c75d 69bc 874e cc3b 2c8c eb3c
00000130: 54ef 19bd 963e 0fbd 21a0 133d 5504 753c
00000140: 51f1 8c3c e042 013d fbb4 ee3c edc8 303c
00000150: 7eb6 b2bc 31e5 873c b004 a0bc 35e2 d43b
00000160: 31e0 a53c 078a 1abd ef03 493c e874 e3bc
00000170: 8499 013c 9d2e a7bc 06ae ef3c 211e fd3c
00000180: 6a15 fabc 0b06 d33c 1f9d 91bb 21c3 c4bc
00000190: 99f3 bcbb 6fd7 8abc 1a7c a03c 5162 f23c
000001a0: ebb3 7ebc 589f 76bc 8be1 f13c 89a4 87bc
000001b0: 0885 b53c c719 db3b e53a a43a 8d3e b73c
000001c0: fa31 82bc 7fa8 5e3c 0cdb d2bc 60d9 ce3c
000001d0: 35a3 e3bc bef1 25bd dec4 04bd 432b 4dbc
000001e0: fece 06bd 30ad 063b c1a2 a9bc e7cc 4bbb
000001f0: 2a8e 0d3d 450a dc3b de96 0fba e766 033d
00000200: 622d fc3c c20c 193c b37c a3bc 531a 04bd
00000210: ad5e 5fbc dca0 9fbc e30b 4fbc c83a c53c
00000220: 931d 9f3c 86d4 22bc 9c1d 3b3c 3aea 24bb
00000230: 01fb 9f3c 3f52 1e3d 85fa 90b9 b5f4 7e3c
00000240: 8615 36bc 877f 13bd bfed e93c 335a cc3c
00000250: 888c 7cbb ebcd 293c 662a c03c 398a d8bb
00000260: 0cb0 b03c e52e 083d 350e 093c 95e4 923c
00000270: 0d8b 65bc 1aeb 0f3d feef 8bbc d997 7c3b
00000280: d064 07bc 3ee0 383d 3ed8 ffbc 3480 e93c
00000290: 0c28 1fbd 6226 8abc b684 00bd 783f 1bbd
000002a0: e18c 133d 6b28 b7bc 1ecd a43b e78f 303d
000002b0: f519 883c bd9d c3bc 8251 ea3b 9ffc ea3c
000002c0: e8fc afb8 16e1 993c 871c 04bd 798b 8e3c
000002d0: daff 943c 3aae f5bc d2b1 c83b 8843 2e3d
000002e0: 56ba 0abd 3a74 983c eaea e23c 62a9 34bb
000002f0: 1513 6f3c c640 313c af68 c9bb 195d 8f3c
00000300: 6d3f 163d bb30 c63c 211b 08bd 9f4d b63c
00000310: a0ce 73bb 973f fdbb da56 e33c f474 273b
00000320: dc7a 39bc 6e33 863b 1083 863c 24c2 59bc
00000330: 03e7 cabc 4841 583c fcc9 d6bc d927 b03b
00000340: c8e8 b1bc 8c5c d9bc 78ac ff3c 15a1 943c
00000350: 9c13 1dbb bae1 b8bc 58e4 ee3b f981 613c
00000360: ed41 0b3d 097c d6bc ef29 bbbc 0baf 0e3d
00000370: 91c7 34bb 0353 fabc b3ed 21bd 8021 3abd
00000380: 5e84 0ebd dc39 c73c 7198 0c3d 89d6 6fbc
00000390: 9656 1f3d 4242 9cbc 4431 573c 2245 1e3d
000003a0: cbc9 18bd ae20 733c 4a25 09bd 2861 24bd
000003b0: d57c f9bc 7b44 123d c837 ed3b f7b6 59bc
000003c0: 046f 59bc a0c2 893c f8e4 da3c 6710 1e3b
000003d0: 0457 fe3c ac3c 1b3c 3bb8 cabc b590 e4bc
000003e0: d1d9 25bc cb38 b93b ced2 893c db7f d53b
000003f0: 8395 023c 6d57 c2bc c5d8 763c fb4f 0ebd

bias f4 [128]
-0.004812917 -0.028981796 -0.030635381 -0.012444128 -0.014122319 -0.028064793 -0.037967756 0.0035925305
0.027174087 -0.014945567 -0.0029472706 0.03812398 0.03245557 -0.008932051 -0.0033525699 0.01257295
-0.033328045 -0.03186001 -0.0044169636 -0.015422971 -0.035663437 -0.0043030586 0.020182073 -0.035443135
0.0030927784 -0.041614495 -0.02359514 0.004914466 0.018040912 0.037794735 -0.013401531 -0.031659614
0.011669877 -0.0347009 -0.01497661 0.022514116 0.016543679 0.034265045 -0.03513539 0.007889701
0.029926797 0.017339563 -0.02327907 0.03613058 -0.0074892864 0.02714072 -0.020347089 -0.024419188
0.014154261 -0.033552453 -0.01048796 -0.03595534 -0.034707848 -0.0075647477 0.01386045 -0.020212356
-0.021145541 -0.0036614367 -0.039590783 0.002976221 0.008671612 0.031244367 0.0033036727 -0.031502735
0.0014641943 0.004653704 -0.03151037 0.039516386 -0.04112396 -0.024369346 -0.0039031114 -0.037250124
0.028099168 -0.0014161097 0.0069558793 0.012160681 0.024536906 0.0076499525 0.034864817 0.027098788
-0.004273932 0.0010966392 0.021146532 0.027490478 -0.022977356 0.0021589324 0.015157416 -0.0013908998
-0.015238176 0.01535908 0.023054821 0.017482206 -0.0019789026 0.0038484728 0.03343212 0.039960567
-0.0010458053 -0.018860154 0.028212035 0.018621115 -0.032365195 -0.033324253 -0.039085455 -0.0131861875
-0.031969808 0.011561914 0.015404181 0.035342325 0.03854935 0.012702109 0.017426245 0.028275605
0.0049336976 0.0045028455 -0.029810905 -0.026798189 0.037712086 -0.028568178 -0.041144226 0.021250071
-0.040001914 -0.023897314 0.0047726 -0.018209562 0.034302875 0.034331463 0.029908968 0.003493105
00000000: adb5 9dbb 3b6b edbc 0df7 fabc 75e2 4bbc
00000010: 4d61 67bc 23e8 e5bc 1484 1bbd a970 6b3b
00000020: 319c de3c 40de 74bc ff26 41bb e427 1c3d
00000030: 22f0 043d bd57 12bc cab6 5bbb c6fe 4d3c
00000040: fd82 08bd a47f 02bd 2dbc 90bb a1b0 7cbc
00000050: d313 12bd ac00 8dbb e054 a53c d22c 11bd
00000060: 36b0 4a3b f673 2abd 984a c1bc 8709 a13b
00000070: 89ca 933c a7ce 1a3d 1892 5bbc 83ad 01bd
00000080: 0333 3f3c 8822 0ebd 7560 75bc 866f b83c
00000090: 9c86 873c 8159 0c3d 20ea 0fbd ce43 013c
000000a0: 0b29 f53c b30b 8e3c c0b3 bebc a9fd 133d
000000b0: b068 f5bb 3756 de3c f0ae a6bc c00a c8bc
000000c0: 46e7 673c 4c6e 09bd b1d5 2bbc e845 13bd
000000d0: d129 0ebd b4e1 f7bb f116 633c 6294 a5bc
000000e0: 6a39 adbc b7f4 6fbb f229 22bd b40c 433b
000000f0: 6013 0e3c 30f4 ff3c 6e82 583b 0309 01bd
00000100: 35ea bf3a 197e 983b 0511 01bd efdb 213d
00000110: 9971 28bd 39a2 c7bc 58cb 7fbb 9693 18bd
00000120: 3a30 e63c c29c b9ba 25ee e33b 983d 473c
00000130: 9f01 c93c 74ac fa3b 69ce 0e3d 47fe dd3c
00000140: 570c 8cbb 1bbd 8f3a 7e3b ad3c b633 e13c
00000150: 023b bcbc e07c 0d3b d056 783c da4e b6ba
00000160: 8ba9 79bc a7a4 7b3c 77dd bc3c d836 8f3c
00000170: 7ab0 01bb a936 7c3b 1ef0 083d b1ad 233d
00000180: 6713 89ba 9c80 9abc ed1c e73c 4f8b 983c
00000190: 5e91 04bd 037f 08bd 1218 20bd e10a 58bc
000001a0: c6f2 02bd 2f6e 3d3c d161 7c3c 1dc3 103d
000001b0: ece5 1d3d 821c 503c 7cc1 8e3c 3ea2 e73c
000001c0: dbaa a13b 9b8c 933b 0036 f4bc e087 dbbc
000001d0: fd77 1a3d d007 eabc d986 28bd a114 ae3c
000001e0: 0cd9 23bd 4dc4 c3bc 7863 9c3b 382c 95bc
000001f0: 2c81 0c3d 269f 0c3d a703 f53c 94ec 643b

weight f4 [128]
1.0089289 1.0046196 1.0087895 1.0075443 1.00761 1.0089136 1.0066514 1.005949
1.00861 1.0081311 1.0084751 1.0054277 1.0049083 1.008678 1.006871 1.008224
1.0072844 1.0060396 1.0072807 1.0061144 1.0083154 1.0054562 1.0080221 1.0081745
1.0074397 1.007916 1.0094216 1.0064647 1.0078264 1.0085158 1.0067548 1.0063647
1.0058231 1.0061247 1.0052919 1.0073707 1.0075966 1.0048074 1.0083886 1.0079504
1.0073423 1.0088845 1.0080512 1.0057049 1.006115 1.0069358 1.0076548 1.0064286
1.0060595 1.0071796 1.0084355 1.0084013 1.0082359 1.0089586 1.0077394 1.0073991
1.0085914 1.0062935 1.0085299 1.0084411 1.0080974 1.0083067 1.0066125 1.0071334
1.0081238 1.0066245 1.0062723 1.0084751 1.0076259 1.0075161 1.0079463 1.0077975
1.0062605 1.0076431 1.0081235 1.0077088 1.0069264 1.0091087 1.0071442 1.007365
1.0072005 1.0076344 1.0084858 1.0077503 1.0075153 1.0086628 1.0048883 1.0064276
1.006289 1.0051103 1.0073159 1.006058 1.0073687 1.0086819 1.0076883 1.0076628
1.0064087 1.0064903 1.0077064 1.0066026 1.006692 1.0051918 1.0082943 1.0071386
1.0070788 1.0050968 1.0070236 1.0057915 1.0040345 1.004599 1.0080432 1.0077528
1.0062164 1.0073452 1.0071673 1.0024447 1.0070064 1.0090041 1.0065401 1.0083613
1.0085397 1.0082288 1.0061382 1.0088707 1.0076998 1.0086869 1.0059327 1.0070419
00000000: 9524 813f 6097 803f 0420 813f 36f7 803f
00000010: 5df9 803f 1524 813f f4d9 803f f0c2 803f
00000020: 221a 813f 710a 813f b615 813f dbb1 803f
00000030: d6a0 803f 5c1c 813f 26e1 803f 7c0d 813f
00000040: b2ee 803f e8c5 803f 93ee 803f 5bc8 803f
00000050: 7b10 813f cab2 803f de06 813f dd0b 813f
00000060: c9f3 803f 6403 813f ba34 813f d6d3 803f
00000070: 7500 813f 0c17 813f 57dd 803f 8fd0 803f
00000080: d0be 803f b2c8 803f 68ad 803f 86f1 803f
00000090: edf8 803f 879d 803f e112 813f 8504 813f
000000a0: 98f0 803f 2123 813f d207 813f f0ba 803f
000000b0: 60c8 803f 46e3 803f d5fa 803f a7d2 803f
000000c0: 8fc6 803f 43eb 803f 6a14 813f 4b13 813f
000000d0: e00d 813f 8e25 813f 9bfd 803f 74f2 803f
000000e0: 8619 813f 3ace 803f 8217 813f 9914 813f
000000f0: 5609 813f 3210 813f aed8 803f bfe9 803f
00000100: 330a 813f 12d9 803f 88cd 803f b615 813f
00000110: e3f9 803f 4af6 803f 6204 813f 82ff 803f
00000120: 25cd 803f 73fa 803f 310a 813f 9afc 803f
00000130: f7e2 803f 792a 813f 1aea 803f 56f1 803f
00000140: f2eb 803f 2afa 803f 1016 813f f6fd 803f
00000150: 43f6 803f dd1b 813f 2ea0 803f 9fd2 803f
00000160: 14ce 803f 74a7 803f baef 803f 82c6 803f
00000170: 75f1 803f 7d1c 813f eefb 803f 18fb 803f
00000180: 00d2 803f add4 803f 86fc 803f 5bd8 803f
00000190: 49db 803f 20aa 803f ca0f 813f ebe9 803f
000001a0: f5e7 803f 03a7 803f 26e6 803f c7bd 803f
000001b0: 3484 803f b396 803f 8f07 813f 0bfe 803f
000001c0: b3cb 803f b0f0 803f dcea 803f 1c50 803f
000001d0: 96e5 803f 0c27 813f 4ed6 803f fc11 813f
000001e0: d417 813f a40d 813f 23c9 803f ad22 813f
000001f0: 4ffc 803f a71c 813f 67c2 803f c0e6 803f

bias f4 [128]
0.007528467 0.00022423312 0.0068941633 0.0019684508 0.0053658257 0.0072171385 0.0036243468 0.0051736445
0.006030116 0.0057168826 0.0070800944 0.0031303882 0.0032040256 0.007017988 0.005282555 0.00580448
0.0034021863 0.0052236323 0.004893859 0.0025970128 0.005470886 0.003643301 0.0051311674 0.0060351086
0.004944508 0.005467228 0.0069159064 0.0046033002 0.004861505 0.0052164583 0.0033332226 0.004720333
0.0033610605 0.0033892558 0.0032252183 0.0017570992 0.006621734 0.0023218808 0.0062042936 0.007155466
0.006554281 0.0049480046 0.0066959015 0.0030458 0.0023303684 0.0043934877 0.0049521946 0.005132578
0.004470431 0.0053005717 0.00090955454 0.0064731133 0.0018508942 0.0070501342 0.002818771 0.0041313046
0.005392638 0.0033486276 0.0046904455 0.007024225 0.0070226653 0.006761181 0.00563561 0.0058663446
0.005553385 0.0037642592 0.0027604455 0.006258905 0.0040861033 0.0018772063 0.0053744484 0.0037325467
0.0026205657 0.0056155073 0.006406006 0.006276369 0.0053906674 0.005927446 0.0049474146 0.0028557691
0.0032733656 0.0037895457 0.0070978627 0.005623719 0.00409101 0.0074357972 0.0038204552 0.0028716892
0.0044576465 -0.0028191162 0.0037145119 0.003637013 0.0032944402 0.006658416 0.005225289 0.007488364
1.4584855e-06 0.004718379 0.0049662874 0.0055757402 0.005667479 -0.0017182707 0.0067461375 0.0055900845
0.0060684974 0.0026447484 0.003860745 0.0041197585 0.00038578355 -0.00015488033 0.005219641 0.0063880254
0.0032187337 0.0059780655 0.0050248336 0.0013754714 0.0010707411 0.0071549304 0.0035857256 0.0047431085
0.0065631648 0.006938679 0.004675916 0.006819785 0.0048845904 0.005195553 0.005550193 0.004967255
00000000: 5cb1 f63b 1f20 6b39 6fe8 e13b 2001 013b
00000010: cfd3 af3b bf7d ec3b 7386 6d3b ad87 a93b
00000020: 4898 c53b b054 bb3b 2300 e83b 3327 4d3b
00000030: a1fa 513b 26f7 e53b 4819 ad3b 8233 be3b
00000040: 37f7 5e3b 012b ab3b aa5c a03b a532 2a3b
00000050: 1e45 b33b 73c4 6e3b 5a23 a83b 29c2 c53b
00000060: 8a05 a23b 6f26 b33b d49e e23b 48d7 963b
00000070: 424d 9f3b d3ee aa3b 3272 5a3b 06ad 9a3b
00000080: 3d45 5c3b 471e 5e3b 2f5e 533b 774e e63a
00000090: 21fb d83b b22a 183b 634d cb3b 6678 ea3b
000000a0: 4bc5 d63b df22 a23b 4b69 db3b 0b9c 473b
000000b0: 18b9 183b 3ff7 8f3b 0546 a23b 2f2f a83b
000000c0: b17c 923b 6bb0 ad3b 2c6f 6e3a 691c d43b
000000d0: b499 f23a d004 e73b 21bb 383b e55f 873b
000000e0: bab4 b03b a674 5b3b 4fb2 993b 782b e63b
000000f0: 631e e63b e68c dd3b ecaa b83b 773a c03b
00000100: 2bf9 b53b cab1 763b 97e8 343b 8017 cd3b
00000110: b8e4 853b 970c f63a 241c b03b be9d 743b
00000120: ccbd 2b3b 4a02 b83b 79e9 d13b 00aa cd3b
00000130: 32a4 b03b 053b c23b ec1d a23b db27 3b3b
00000140: f685 563b 075a 783b 3095 e83b 2d47 b83b
00000150: e10d 863b fda7 f33b 9a60 7a3b f332 3c3b
00000160: 7311 923b ecc0 38bb 2b6f 733b f45a 6e3b
00000170: 89e7 573b d72e da3b e738 ab3b f360 f53b
00000180: 2ec1 c335 a29c 9a3b 3dbc a23b b3b4 b63b
00000190: 42b6 b93b 9937 e1ba b40e dd3b 072d b73b
000001a0: 3fda c63b 8453 2d3b 8e04 7d3b 0aff 863b
000001b0: fe42 ca39 5f67 22b9 8609 ab3b a452 d13b
000001c0: 64f1 523b a6e3 c33b 5ca7 a43b 2949 b43a
000001d0: 1c58 8c3a e873 ea3b 7efe 6a3b 146c 9b3b
000001e0: d10f d73b dc5d e33b 6d38 993b 8178 df3b
000001f0: ea0e a03b 753f aa3b 65de b53b 5bc4 a23b

running_mean f4 [128]
-0.051268414 0.22436376 0.06679614 -0.44499567 0.1272275 1.0065658 0.2134107 0.31774843
-0.015500579 0.6045191 0.26621264 0.5969649 -1.4245372 -0.60057276 0.35820055 -0.13106933
-0.02206673 0.38567573 0.04961014 0.5708216 -0.11183343 -0.8243207 -0.49310982 -0.18378511
0.1922796 0.24726282 0.38915697 0.33033687 -0.01905592 -0.4559847 0.1528117 -0.18552402
-0.9253719 0.023557201 -0.5262257 -0.9425537 0.55566305 0.7515039 0.71418566 -0.43266
0.24229854 -0.20955004 -0.92330277 -0.41402718 -0.25009993 -0.021074796 -0.07639097 -0.018876888
-0.43545637 0.46894974 0.5884389 -0.5761496 0.48341843 -0.9098474 -0.1995709 0.8099109
0.77379245 0.3396476 0.240272 -0.934593 -0.08591679 0.57887864 -0.36922142 0.055226363
-0.108933106 0.27477056 0.32239935 0.18052787 -0.46859252 1.3024613 -0.27689776 -0.18090977
-0.23354094 -0.30487838 0.11528566 0.51331174 -0.10217212 0.0053900513 -0.8049768 -0.5025045
-0.34559143 0.68471676 0.078078516 -1.2999041 -0.34657487 0.24292274 0.20959923 -0.3559972
-0.33711505 -0.81448096 -0.29580954 0.8584483 -0.341611 0.13548975 0.5057659 0.054057337
0.15501 -0.30535635 -0.52001506 0.8091589 0.15794739 0.061027683 0.44149902 0.28243247
-0.45456675 -0.056549348 -0.42152092 0.72412956 0.5251069 0.53823954 0.039073814 0.3537533
-0.34594706 0.95457804 -0.17609836 0.11898239 0.004943762 0.52906317 -0.59373176 0.31759945
0.7817078 0.5679222 -0.4306275 0.028516954 -0.26919475 0.16774605 -0.7296907 0.17644656
00000000: d4fe 51bd 9dbf 653e 6acc 883d 79d6 e3be
00000010: ed47 023e 26d7 803f 5688 5a3e ecaf a23e
00000020: 24f6 7dbc c4c1 1a3f 064d 883e b1d2 183f
00000030: 3c57 b6bf 23bf 19bf 1066 b73e 0a37 06be
00000040: 49c5 b4bc 4a77 c53e 0134 4b3d 5d21 123f
00000050: ed08 e5bd ae06 53bf e478 fcbe 2a32 3cbe
00000060: f2e4 443e 7732 7d3e 953f c73e ea21 a93e
00000070: 291b 9cbc d476 e9be ac7a 1c3e 02fa 3dbe
00000080: 2ce5 6cbf 08fb c03c bab6 06bf 334b 71bf
00000090: ef3f 0e3f 8f62 403f dfd4 363f 9d85 ddbe
000000a0: 1c1d 783e 4994 56be 925d 6cbf 5ffb d3be
000000b0: 190d 80be 0da5 acbc de72 9cbd b4a3 9abc
000000c0: 23f4 debe 2e1a f03e efa3 163f 8a7e 13bf
000000d0: 9f82 f73e c2eb 68bf 505c 4cbe 5256 4f3f
000000e0: 4317 463f 4ae6 ad3e dd09 763e 7d41 6fbf
000000f0: 24f5 afbd 6431 143f 970a bdbe 0a35 623d
00000100: 5218 dfbd baae 8c3e 8711 a53e 4cdc 383e
00000110: 5ceb efbe 0db7 a63f 8bc5 8dbe 6940 39be
00000120: 5b25 6fbe 0519 9cbe e31a ec3d 6668 033f
00000130: 9e3f d1bd 079f b03b f612 4ebf 23a4 00bf
00000140: 5cf1 b0be 9949 2f3f a1e7 9f3d 4263 a6bf
00000150: 4372 b1be bdc0 783e 2ea1 563e 4445 b6be
00000160: 589a acbe d381 50bf 5974 97be 45c3 5b3f
00000170: a3e7 aebe d3bd 0a3e e079 013f 3a6b 5d3d
00000180: f1ba 1e3e ab57 9cbe b51f 05bf 0a25 4f3f
00000190: f6bc 213e 2af8 793d 290c e23e fd9a 903e
000001a0: f9bc e8be 4aa0 67bd 97d1 d7be 8e60 393f
000001b0: 686d 063f 11ca 093f dd0b 203d 271f b53e
000001c0: f91f b1be 3a5f 743f 2153 34be 0aad f33d
000001d0: 48ff a13b af70 073f cefe 17bf 659c a23e
000001e0: 011e 483f 5963 113f 357b dcbe 639c e93c
000001f0: e5d3 89be 9fc5 2b3e 02cd 3abf 68ae 343e

running_var f4 [128]
0.28837118 0.2815736 0.2526807 0.17922445 0.3009534 0.28388864 0.20507923 0.17545593
0.1377865 0.2562367 0.16562109 0.18630864 0.37017727 0.21134059 0.19120559 0.19018902
0.16136721 0.14360216 0.15090151 0.29223397 0.15615182 0.19540145 0.2946626 0.17997706
0.22061922 0.1599392 0.18250486 0.2254209 0.20253456 0.22037299 0.1858513 0.18842809
0.26003903 0.22748658 0.49966815 0.30992666 0.13409886 0.24549235 0.30776 0.18708645
0.1781636 0.20744914 0.37000167 0.15226345 0.21451777 0.23184773 0.22142366 0.14585544
0.29891863 0.20805609 0.20613967 0.26318768 0.2706444 0.1726091 0.23557892 0.35082847
0.13783121 0.15594609 0.14613159 0.25586843 0.17278244 0.12484809 0.26017034 0.23720156
0.24575788 0.20549445 0.14895019 0.15803966 0.17219563 0.18832803 0.20118375 0.26412252
0.16746901 0.20855324 0.16213438 0.17259565 0.20553863 0.14056528 0.32470897 0.24543165
0.22566482 0.12598127 0.13945508 0.20783268 0.24688993 0.16577898 0.22388692 0.113137856
0.24781555 0.21162322 0.46109572 0.20277977 0.17472936 0.24186514 0.16277798 0.15251505
0.2544816 0.22658634 0.22017747 0.27767894 0.2040817 0.18004404 0.20448364 0.14827526
0.2462612 0.18773328 0.21246761 0.23558447 0.2669472 0.10854694 0.1788321 0.1932657
0.1234074 0.15499651 0.26780558 0.35095668 0.27824858 0.14569078 0.2378056 0.2688597
0.22504862 0.2408907 0.2135573 0.2692927 0.1923672 0.13400875 0.2053664 0.19727232
00000000: 63a5 933e 6a2a 903e 5d5f 813e 9d86 373e
00000010: 9016 9a3e da59 913e 4a00 523e b8aa 333e
00000020: e717 0d3e 7531 833e 9398 293e b1c7 3e3e
00000030: e087 bd3e ab69 583e 66cb 433e e9c0 423e
00000040: 723d 253e 720c 133e ed85 1a3e b19f 953e
00000050: 43e6 1f3e 5117 483e 04de 963e e84b 383e
00000060: 01ea 613e 1ac7 233e 8ee2 3a3e bdd4 663e
00000070: 3865 4f3e 75a9 613e ce4f 3e3e 4bf3 403e
00000080: d623 853e 3ef2 683e 81d4 ff3e b5ae 9e3e
00000090: 3651 093e 5962 7b3e b892 9d3e 9793 3f3e
000000a0: 8570 363e 8c6d 543e dc70 bd3e f3ea 1b3e
000000b0: 8caa 5b3e 7e69 6d3e e2bc 623e 215b 153e
000000c0: dd0b 993e a80c 553e 4716 533e 89c0 863e
000000d0: e791 8a3e 71c0 303e 9a3b 713e ca9f b33e
000000e0: a023 0d3e 55b0 1f3e 85a3 153e 3001 833e
000000f0: e1ed 303e 5bb0 ff3d 0c35 853e f7e4 723e
00000100: f4a7 7b3e 236d 523e 6686 183e 26d5 213e
00000110: 0d54 303e 10d9 403e 1d03 4e3e 113b 873e
00000120: ff7c 2b3e fb8e 553e 8e06 263e eabc 303e
00000130: b878 523e 58f0 0f3e 4140 a63e 6f52 7b3e
00000140: ae14 673e 3c01 013e 50cd 0e3e 17d2 543e
00000150: b7d0 7c3e f7c1 293e 9d42 653e d2b4 e73d
00000160: 5cc3 7d3e c2b3 583e bd14 ec3e 80a5 4f3e
00000170: 41ec 323e 7fab 773e 45af 263e e82c 1c3e
00000180: 6a4b 823e 4006 683e 3476 613e ef2b 8e3e
00000190: cbfa 503e 775d 383e 2964 513e 78d5 173e
000001a0: e52b 7c3e 273d 403e 1c91 593e 0e3d 713e
000001b0: 4ead 883e dc4d de3d c31f 373e 72e7 453e
000001c0: 05bd fc3d 68b7 1e3e d01d 893e 98b0 b33e
000001d0: 9976 8e3e f72f 153e 5083 733e fba7 893e
000001e0: 2573 663e 0dac 763e c4ae 5a3e bce0 893e
000001f0: e8fb 443e 9739 093e 924b 523e c101 4a3e
