model/MNIST/CNN_reinforce.pt (torch, 656183 bytes, 22 tensors)

weight f4 [32, 1, 5, 5]
000000 06 d6 1f bd 5c 90 ed 3d 39 cb 2e be a5 ca ab bd
       -0.039022468 0.115998 -0.17069711 -0.08388261
000010 04 ae 6b 3d 2e 06 0f bd 16 14 04 be 53 67 96 bd
       0.057539 -0.034918003 -0.12898287 -0.07343926
000020 8b d6 29 be 7f 71 19 be d4 6b 34 3c e0 ba 2d bd
       -0.16585748 -0.14984702 0.011012036 -0.042414546
000030 18 99 f2 3d 08 62 2d 3e d9 03 20 3e 4c 06 31 3e
       0.118456066 0.16931927 0.15626468 0.17287558
000040 e5 73 fc 3d 1d 1d 50 3e d9 61 be 3d 3a 08 15 be
       0.12326793 0.20323606 0.09296007 -0.1455392
000050 cc 67 a3 3b 38 1d b4 bd d1 a1 20 be 74 ce c4 bc
       0.004986739 -0.087946355 -0.15686728 -0.024024226
000060 5e a2 c1 3d ba b5 20 bd 3c cd c0 3d 14 12 07 be
       0.09454797 -0.039235808 0.09414145 -0.1319049
000070 d0 8d dd 3d c6 29 14 3c a5 8b de bc 14 8a c7 3b
       0.10818064 0.009043163 -0.027166197 0.0060894582
000080 d4 e5 93 3c e4 02 35 bd ad 0e 35 3e a2 d9 9f bd
       0.018053927 -0.04419221 0.1768138 -0.07805182
000090 76 d8 b0 bd 62 77 0e be 85 b8 c7 3b 55 24 62 3d
       -0.08635037 -0.13912728 0.0060949945 0.05521043
0000a0 52 e7 1c 3d dc f2 13 3e 94 01 0d 3d b2 1a 28 3e
       0.03830654 0.14448112 0.034425333 0.16416433
0000b0 c0 38 3b bd 3b 2f 94 3d f7 91 f5 bd 2c 52 3d 3d
       -0.045708418 0.07235571 -0.11990731 0.046220943
0000c0 02 e8 d2 3d 81 f8 e3 bc 27 ec 3a 3e f9 0e e9 3d
       0.10298158 -0.027828457 0.18254147 0.11379809
0000d0 55 32 8a 3d fe a7 f2 bd 5b 1e 36 3d dd cc 81 bd
       0.06747881 -0.11848448 0.044462543 -0.06337903
0000e0 c7 aa 37 3e 80 3d c0 3c f5 b5 eb 3d 8d 22 a8 3d
       0.1793624 0.023466825 0.11509315 0.08209715
0000f0 df 41 56 bd 08 5b 3f be 4c 1e 84 3d 62 07 2c be
       -0.052308913 -0.1868707 0.06451091 -0.16799691
000100 b7 a3 7f 3d 8a 54 47 be 1e ac 05 3e a1 25 1b 3e
       0.06241199 -0.19465843 0.13053939 0.15151073
000110 44 bd 08 be b7 0e 26 be d0 a8 08 3e 91 ab 47 be
       -0.13353449 -0.16216551 0.13345647 -0.19499041
000120 2b f5 ef bd 01 51 58 bd b6 41 e6 3d 6b 88 c2 3d
       -0.11716684 -0.052811626 0.11243002 0.09498676
000130 8a fc 40 be 8b 6c 10 be 62 bc 15 3e b0 36 d2 3d
       -0.18846336 -0.14103906 0.14622644 0.10264337
000140 ae c2 39 be 96 94 9b bd 3a 81 db 3a c3 53 6f bd
       -0.1814067 -0.075967 0.0016746887 -0.05842949
000150 e2 5a 36 be ee ee e8 bd ba 8e 5c bd bb 1a 1d 3e
       -0.17808107 -0.11373697 -0.053847052 0.15342228
000160 07 37 21 3d fe 5f c9 bd 4f 9d 19 be fa e4 35 3d
       0.03935912 -0.09832762 -0.15001415 0.044407822
000170 f0 e7 27 be 32 59 89 bd 15 20 52 3e e1 30 94 bc
       -0.16397071 -0.06706466 0.20520051 -0.018089714
000180 77 73 e8 bd c2 26 42 3d c2 d2 54 bd 3f 2d a0 3a
       -0.11350148 0.047400244 -0.051958807 0.0012220516
000190 9b c2 09 be f8 2d cd bc 6e f4 1f be a4 45 ad bc
       -0.13453142 -0.025046334 -0.15620586 -0.021151371
0001a0 2b db 18 be 92 44 bb bc 6e 96 5a bd 97 7e 40 be
       -0.14927356 -0.022859845 -0.053366117 -0.1879829
0001b0 cd b3 b9 bd 9e 5e 1e be 49 7b 18 3e 69 79 b8 bd
       -0.090674974 -0.15465781 0.1489078 -0.09007532
0001c0 3a 94 20 be 34 b6 83 3d d3 be c2 3c b0 3b 81 bd
       -0.15681544 0.06431237 0.023772633 -0.063102126
0001d0 65 ff 4d 3c 58 b8 03 be ed f2 0a 3e dc 4c 1e 3e
       0.012573098 -0.1286329 0.13569231 0.15459007
0001e0 e4 e5 37 be e1 c9 5d 3d 4c 52 2d 3e 2c f5 f4 bd
       -0.1795879 0.054147605 0.16925925 -0.11960825
0001f0 0e 97 24 3d 82 c5 66 bd 73 7e 3d be a8 85 ba 3d
       0.04018312 -0.056340702 -0.18505268 0.09107524
000200 03 0c 8d bd 5c a2 a5 bd f0 0e 0f 3e da 59 b4 bd
       -0.06887057 -0.08087608 0.13970542 -0.088062
000210 52 e4 34 3d aa e3 32 3e 93 36 13 3e fd af 9c 3d
       0.044163056 0.1746966 0.14376287 0.076507546
000220 5e 4a 0e 3e 82 d6 1e be 99 26 f5 3d e6 6d b8 3d
       0.13895556 -0.15511516 0.119702525 0.090053365
000230 a9 dd b9 bd db cf bf bd 5d ae 01 be 8c 77 ac 3d
       -0.090754814 -0.09365817 -0.1266417 0.08421239
000240 9e 7c c2 bc a4 f6 81 bc f3 b9 a2 3d 15 6f e1 bd
       -0.023741063 -0.015864678 0.07945623 -0.11007515
000250 62 32 20 be 69 02 42 3e cf 7c 92 bd 20 af b6 3d
       -0.1564422 0.18946232 -0.071527116 0.08920121
000260 92 5c 0c 3d 99 e3 30 3e 40 a2 3e be bf eb ac 3d
       0.03426797 0.17274322 -0.18616581 0.084434025
000270 01 d2 34 3e 52 e7 b4 3d 53 45 32 be c5 86 b5 bd
       0.17658235 0.08833183 -0.17409258 -0.08863596
000280 a7 2d ac 3d bf bd ce 3c e5 c5 0e be 77 64 77 3d
       0.08407145 0.025236962 -0.13942678 0.060398545
000290 d8 4c 37 be a7 fa b2 3c 8d cc 13 be 7b d3 07 be
       -0.17900407 0.021848036 -0.14433499 -0.13264267
0002a0 70 aa a3 3d 80 8d c8 3d 04 fb 49 bc 65 62 0d 3e
       0.07991493 0.09792614 -0.012327913 0.13807066
0002b0 c9 e5 02 3e be 6c b5 3d f7 e3 e0 bd 24 c8 bf 3d
       0.12782969 0.088586316 -0.10980981 0.09364346
0002c0 89 7c c9 3b e7 c7 d3 3d b3 af 52 be 45 a8 5d 3d
       0.006148879 0.10340863 -0.20574836 0.054115552
0002d0 e1 4e 9e bd 87 6b 47 3d 6a 93 1c be ac 86 23 3e
       -0.07729889 0.04868653 -0.15290609 0.15969342
0002e0 28 3a 1e be be f8 39 be 1c 14 d6 bd c8 a0 01 be
       -0.15451872 -0.18161294 -0.10453054 -0.1265899
0002f0 6e a2 b3 3d af fc 4c 3e 47 7a c6 3d b8 59 15 3e
       0.087712154 0.20018266 0.09691291 0.14585006
000300 da 4d 23 3d 47 41 b0 bc 66 d2 db 3d 1f 24 15 be
       0.039869167 -0.021515502 0.1073349 -0.1456456
000310 15 e9 fd 3d 18 e6 02 3e e3 ac 0a 3e ff 85 a5 bd
       0.123979725 0.12783086 0.13542514 -0.08082198
000320 7a 78 81 bd 9e dd 99 3d ff 08 0a 3e d6 97 07 3e
       -0.06321807 0.07512973 0.13479994 0.13241515
000330 40 0f b0 bd 6c 53 53 be 97 7e cc 3d db a4 09 bc
       -0.08596659 -0.20637292 0.099850826 -0.008401121
000340 00 1d 49 3e 6e 1e 62 3c bb 30 3b bd c4 ca 0c be
       0.19639969 0.0138012 -0.04570077 -0.13749224
000350 f1 fe 25 3e ef 9b ab bd 42 05 e2 3c 08 93 21 be
       0.16210534 -0.08379351 0.027590398 -0.15778744
000360 b2 7c 8c bd 73 11 44 be 30 6d 78 3d 30 65 49 3d
       -0.06859721 -0.19147281 0.060651004 0.049168766
000370 de c4 42 3e 46 30 18 3e 1f 2f 82 3d c4 b1 87 bc
       0.19020411 0.14862165 0.06356644 -0.016564257
000380 65 80 c3 3c 0a 6e 1d 3c 8e 0e b2 3d b4 20 27 3c
       0.023864934 0.009608755 0.08694182 0.010200668
000390 4b 7e 09 be 6d 21 12 3e 8a ce c6 3d 1c a3 06 3e
       -0.13427083 0.14270563 0.09707363 0.13148159
0003a0 87 4d 2d 3e 7c 09 d2 bd 67 1a 44 be 2e 59 27 3e
       0.16924106 -0.10255715 -0.19150697 0.16342613
0003b0 a5 1f c3 bb 25 c3 16 be 69 a5 9b 3d 38 be 34 be
       -0.0059547 -0.14722879 0.07599909 -0.17650688
0003c0 4d 60 dd bd 38 a3 83 bd 39 2e 26 be f3 d1 dc bd
       -0.108093835 -0.06427616 -0.1622857 -0.10782232
0003d0 34 e1 41 be 17 29 c1 bb 4d 00 38 3e 30 db c3 3d
       -0.18933564 -0.005894791 0.17968865 0.09563291
0003e0 09 db 77 bd 02 e1 c2 3d ec 4c 07 be 9d 40 d3 bd
       -0.060511623 0.09515573 -0.13212937 -0.103150584
0003f0 48 08 c4 bd df 36 2c bd 6e 60 a1 bd 84 09 05 3d
       -0.09571892 -0.042044517 -0.07879721 0.032479778

bias f4 [32]
000000 96 ac e1 3c d3 7c 42 bd e6 94 3f 3c a6 de 7a 3d
       0.027548116 -0.047482323 0.011693215 0.06124749
000010 36 11 14 3e ed a6 29 be ac b7 ff 3d 7f ed 4f 3d
       0.1445969 -0.16567583 0.124862045 0.050763603
000020 e9 c6 60 bd 77 c2 08 be 3c 41 47 3e f8 8c 43 bd
       -0.054877196 -0.13355432 0.19458479 -0.04774186
000030 8f 0f 46 be 6d ab d7 bd 79 42 b5 3d 59 f8 8a 3b
       -0.19341873 -0.10530744 0.08850569 0.004241031
000040 8e fb a4 3d 2e 01 d4 bc d8 7d fe 3d 69 3a 2f 3e
       0.08055793 -0.025879469 0.124263465 0.17112125
000050 7f f3 14 bc 69 06 be bc e7 8e 3b be 82 06 06 3e
       -0.009091257 -0.023196416 -0.18316232 0.1308842
000060 ab b0 64 bd 86 d5 3a 3e 39 15 49 3e c6 53 d6 bd
       -0.055832546 0.18245515 0.19637002 -0.10465197
000070 d1 78 36 3e 01 59 46 be b0 64 4b 3e 2f af 22 3e
       0.17819525 -0.1936989 0.19862628 0.1588714

weight f4 [32]
000000 f5 ff 80 3f 5d 5d 7c 3f b6 cb 81 3f d9 82 81 3f
       1.0078112 0.9857996 1.0140293 1.0118057
000010 03 cf 81 3f 26 f1 7f 3f 7b 13 7f 3f 14 cd 7f 3f
       1.01413 0.9997734 0.996391 0.999223
000020 8a 9c 7d 3f 9e fb 81 3f 2e 5b 81 3f ce 11 7c 3f
       0.99066985 1.0154912 1.0105951 0.9846467
000030 1e 17 81 3f a8 f7 7f 3f 02 83 7e 3f 1b d3 80 3f
       1.008518 0.9998727 0.9941865 1.0064424
000040 b3 3c 80 3f 80 46 80 3f 76 2d 7f 3f 2f a7 7e 3f
       1.0018524 1.0021515 0.9967874 0.9947385
000050 69 b7 7a 3f 8f 82 80 3f d6 25 81 3f 1a a6 7c 3f
       0.9793611 1.0039843 1.0089672 0.9869095
000060 11 ab 7f 3f 33 19 80 3f cd 73 81 3f 8e ce 83 3f
       0.998704 1.000769 1.0113465 1.029741
000070 f4 2d 81 3f 24 5b 7e 3f e8 2b 7c 3f 65 30 81 3f
       1.0092149 0.9935782 0.98504496 1.0092894

bias f4 [32]
000000 80 de e1 3c 22 9f 84 3a ca 1a 90 3b 2d 9c 54 ba
       0.027571917 0.0010118226 0.0043977248 -0.000811043
000010 51 28 53 bb 25 8f a9 3c e6 47 87 bb d6 2c 4d 3c
       -0.0032220075 0.02069814 -0.004128444 0.012522897
000020 5e 2e 9e bb f1 06 a3 3b ec ec 4f bc 50 26 76 3c
       -0.0048273047 0.0049751927 -0.012690764 0.015023783
000030 0c fc dc 3b 36 4a 9f 3c 16 ff 08 3c d8 1e 37 3b
       0.0067439135 0.019444566 0.0083615985 0.0027941968
000040 3a 47 06 3c ce bb 80 bc c9 8c 41 bc b2 0a a8 bb
       0.008195693 -0.015714552 -0.011813351 -0.005128228
000050 cc aa 39 3c 1b 70 a6 3b 79 7b 69 3c 88 d1 b1 bb
       0.011332225 0.005079282 0.01425063 -0.0054265894
000060 60 88 dc bb bc 50 64 bb 03 d6 71 3c 21 ad 5b 3c
       -0.0067301244 -0.003483816 0.014760497 0.013407976
000070 e9 ba 30 3a a0 c1 9a 3c b7 26 a0 3c ce d5 10 3c
       0.0006741719 0.018891156 0.01954971 0.0088400375

running_mean f4 [32]
000000 82 ed 96 3c 23 1e 83 be 2f e5 01 bb 5d 7d 10 3f
       0.0184238 -0.2560893 -0.0019820442 0.5644129
000010 ec 6d 38 3f fc 28 76 be da 2a 37 3d a1 c4 f8 bd
       0.7204273 -0.24039072 0.0447186 -0.12146879
000020 23 80 7e be b3 cc 2a bc 85 3d e1 3e 7e fb 7d be
       -0.24853568 -0.010424781 0.43992248 -0.24802968
000030 69 7e 07 3d 12 71 10 bf b9 41 c2 be d7 91 e8 3b
       0.03307954 -0.5642253 -0.37940767 0.0070974636
000040 46 16 b9 3e d5 be 84 3e 05 96 31 3e 01 f7 ca be
       0.36149806 0.25926843 0.17342384 -0.39641574
000050 76 ff 5b bc 8b f5 93 3e 50 1c 67 be d8 ce 46 bc
       -0.013427606 0.28898272 -0.22569394 -0.012134276
000060 28 53 6d bd 16 72 4b 3e 2a 97 43 3e ca 12 95 3e
       -0.057940632 0.19867739 0.19100633 0.29115897
000070 cf 6a 01 3f 10 af ec be 31 90 16 3e 04 86 84 bd
       0.505536 -0.46227312 0.14703442 -0.06470874

running_var f4 [32]
000000 b7 ed 6e 3d 98 35 65 3d 82 8d 92 3d 8a a3 5b 3e
       0.05833217 0.055959314 0.07155897 0.21449104
000010 04 df a4 3e 14 dc 3e 3d fb c8 90 3d b8 f1 ac 3d
       0.32201397 0.0465966 0.07069584 0.08444542
000020 9f d6 9e 3d 3a b9 1a 3e 66 82 8f 3d 3c 27 97 3d
       0.077557795 0.15109721 0.070072934 0.0738053
000030 b6 bd 02 3e 52 3b 68 3e c1 02 55 3e 56 c7 d6 3d
       0.12767681 0.22678879 0.20801832 0.10487239
000040 51 f7 37 3e 6d f2 b7 3d 28 33 98 3c 2e 05 62 3e
       0.17965437 0.08981786 0.01857908 0.22072288
000050 23 0e 9b 3c f9 21 08 3e 6f 20 f8 3d 2a ca 9d 3d
       0.01892764 0.1329421 0.12115561 0.07704575
000060 a3 76 c8 3d 4b 14 a9 3d b4 f3 3c 3d c1 e0 cc 3d
       0.09788253 0.08255824 0.04613085 0.10003806
000070 81 f2 0d 3e d7 98 9b 3d 35 22 a7 3c f5 95 8f 3e
       0.13862039 0.07597511 0.020402053 0.28044096

weight f4 [64, 32, 3, 3]
000000 d4 6d 5c bd f9 50 35 bc a3 7d 52 bd 11 e3 78 bc
       -0.053815678 -0.011066669 -0.051389348 -0.015190856
000010 40 d1 40 bb fe 1b 50 3d cc 3b 69 3c 2d 17 b8 3a
       -0.0029421598 0.050807945 0.014235448 0.0014044993
000020 c3 87 78 3c 96 f1 87 bc b1 ab e7 bc ef 71 f3 bc
       0.015169087 -0.01659469 -0.028280111 -0.029717414
000030 b8 49 6c bc 64 a3 89 3d 0b e7 02 bd 8a bb 70 bc
       -0.014421873 0.067206174 -0.03195862 -0.01469315
000040 5e ec 49 3d 7e 68 1b bd 39 7f a9 bc b3 fc 46 bd
       0.049297683 -0.03794145 -0.020690547 -0.048580837
000050 7f 9f ad bc b5 da 3d 3d 6d a8 24 3c ab 01 a7 39
       -0.021194218 0.046351153 0.010049921 0.00031853965
000060 06 5f f4 bb c0 90 61 bb ce 11 6a bc 53 d8 34 bd
       -0.0074576167 -0.0034418553 -0.0142864715 -0.044151615
000070 1b 5d 00 3d d0 c0 8f bc 63 61 2e 3d 3e 61 d2 3c
       0.031338792 -0.017547995 0.042573344 0.025681134
000080 d8 83 9b bc 6a 83 a3 bc 4d ac 09 3d 0f c8 7e 3c
       -0.018983766 -0.019960124 0.033611584 0.015550627
000090 09 b8 22 bd 2a 84 42 bd 1d c9 55 3d 38 85 35 bc
       -0.03972629 -0.047489323 0.05219375 -0.011079125
0000a0 7a 3a 15 bd fd 05 2f bd 87 3b 5e bd 59 fe 3f 3c
       -0.03643272 -0.04273032 -0.05425599 0.011718356
0000b0 55 f1 41 3d 15 ee a0 bc d4 0c 01 bd f7 49 8e bc
       0.047349293 -0.019644776 -0.031506374 -0.017369254
0000c0 03 a9 6b bd c9 b9 49 bd 69 c4 c8 3c b9 b3 e9 bb
       -0.05753423 -0.049249444 0.024507718 -0.0071320203
0000d0 f6 da 28 3d 9c ef 3d 3d b9 ab 44 3d 02 a7 2a 3d
       0.041224442 0.046371087 0.04801533 0.041663177
0000e0 90 c6 12 3d 42 2b 40 3d 76 7e 62 3c 6f 5d 86 3d
       0.035833895 0.046916254 0.013824096 0.0656079
0000f0 2e 6d 0f 3d 68 52 04 3d fa 2f f3 3c 84 8d f0 bc
       0.03501623 0.03230515 0.029685963 -0.029364355
000100 f3 c3 7d 3a bc 9a 45 bc 03 3b ab 3c 23 f6 59 bd
       0.0009680383 -0.012060817 0.020902162 -0.05321325
000110 69 9f b9 bc 6c 1f 57 3c 98 1e 10 3d 30 60 10 bc
       -0.02265902 0.01313005 0.035185426 -0.008811995
000120 71 6c 90 3a 4e 4a c8 3c 05 19 8f 3c c6 c6 35 bd
       0.0011018646 0.024449494 0.017467985 -0.04437902
000130 db a8 16 3d 0b 52 3f 3d fd 4b 1b 3d 36 b2 97 bc
       0.036782127 0.0467091 0.037914265 -0.018517595
000140 a9 d4 15 3c a5 8a ab 3c e4 97 06 3d 0d cf 3f bd
       0.00914494 0.020940134 0.032859698 -0.04682832
000150 b7 81 00 bd 8e f9 99 bc 14 05 20 3d 58 6c 18 3c
       -0.031373706 -0.018795755 0.039067343 0.009303175
000160 16 c3 03 3d 68 c4 f2 bc 05 1f 9f bc d6 c1 aa 3c
       0.03216847 -0.02963467 -0.019423971 0.020844381
000170 30 81 d7 bc ec 07 41 3d 4d 29 20 bc 30 47 f0 3c
       -0.026306719 0.047126696 -0.009775472 0.02933082
000180 2c f3 94 3c c9 0f 49 3c 3d db 0e 3d f4 2a 25 bd
       0.01818236 0.01227183 0.03487705 -0.040324166
000190 1d 69 d6 bc 50 61 8b 3d a9 75 c0 3c 36 0a 64 bd
       -0.026173169 0.0680567 0.023493605 -0.0556738
0001a0 9d 92 cb 3c 3e 3b d4 bb 41 9d 59 bc dd e9 46 bc
       0.024850184 -0.006476789 -0.013282121 -0.012140718
0001b0 a4 14 0d bd 15 ad 86 3d e0 af 24 bd 80 56 c4 ba
       -0.034443513 0.065759815 -0.04020679 -0.0014979392
0001c0 80 03 36 3d f0 df 0a bd ab c9 65 3d b6 3f 49 bd
       0.04443693 -0.03390497 0.05610053 -0.049133025
0001d0 0e f5 31 3d cf 6e 56 3d 85 89 8e 3c ee 98 b6 3c
       0.043446593 0.05235177 0.017399559 0.02228972
0001e0 8f 27 59 bc b5 63 d3 3b 60 68 0e 3c 93 d5 4d 3d
       -0.01325406 0.006451095 0.008691877 0.05025251
0001f0 88 61 8f bc c3 44 10 bc 41 b2 09 3d cb 53 3d bd
       -0.017502561 -0.008805457 0.03361726 -0.04622249
000200 6d ce 41 3c 1b 61 6c bd 0c de 32 3c 0e 76 4f bc
       0.011829001 -0.057709794 0.010917198 -0.012662424
000210 b3 02 84 bc cb c1 f0 bb 4e 50 29 bd e3 c7 7c bc
       -0.016114568 -0.0073473207 -0.04133635 -0.015428516
000220 e5 3e fa bc 8a fa 17 bd 0e f3 4b bd ef a4 46 3d
       -0.030547569 -0.037104167 -0.049792342 0.048497137
000230 3d b6 55 bd 74 29 3c bd bf b6 3d bd db 62 7b 3d
       -0.05217575 -0.04593797 -0.04631686 0.061373573
000240 93 53 02 bd 42 ee 49 3b f8 17 b4 bc f5 29 1a 3d
       -0.031817984 0.0030812179 -0.021984085 0.03763767
000250 8c 8d 29 bc 0a ed 6a 3d 47 34 05 bd 03 98 8f bc
       -0.010348689 0.057354964 -0.03252056 -0.01752854
000260 a9 d3 35 3d fe 54 a9 3d 57 42 81 3b 2d af 52 3c
       0.044391308 0.08268164 0.003944676 0.012859148
000270 44 00 93 3d 56 f5 21 bd 68 74 5d bd b3 a5 8f 3c
       0.07177785 -0.03954061 -0.05406609 0.017535066
000280 35 3e 53 3c ac 3b 57 3d 7a ef bb bc 85 45 e0 bc
       0.012893249 0.052547142 -0.02294134 -0.0273769
000290 72 c3 12 bd b2 0e e2 bc 8e 5b cb 3c 0e 7c 73 3d
       -0.035830922 -0.027594898 0.02482393 0.05944448
0002a0 63 48 10 3d 3b 95 26 3d f1 f8 51 3d 2e 82 03 3b
       0.035225283 0.04066966 0.0512628 0.0020066607
0002b0 e2 fd 4f bd c2 53 40 bd 11 24 1e 3c 0d 43 28 3d
       -0.05077923 -0.046954878 0.009652154 0.04107957
0002c0 c9 0e 8c bc a3 b1 1d 3d 40 3a 0d bd 40 86 3a 3d
       -0.017096894 0.038499486 -0.03447938 0.045538187
0002d0 5a ba 89 3d a3 4f 16 bd a1 28 00 3d fa 83 a8 bc
       0.06724997 -0.03669704 0.031288747 -0.020570744
0002e0 b9 36 2e bd 67 18 28 bd 1b 03 42 3d e2 87 02 3d
       -0.042532656 -0.041038897 0.047366243 0.03186787
0002f0 69 1a 2e bd c1 4d 7e bd 39 80 54 3d 1a ae fc bc
       -0.042505655 -0.06208587 0.051880095 -0.030844737
000300 1f bd b7 bb a2 30 ac bc e6 f3 43 bc bf bc 4b 3d
       -0.005607262 -0.021019284 -0.011960005 0.04974055
000310 40 7d 0a bb 26 47 9e bc df 74 fd bc 55 6d 89 bc
       -0.0021131784 -0.019321036 -0.030939518 -0.016775766
000320 c0 df 42 bc c1 2b 0e bd 98 8c 2e 3c a7 c7 3c 3d
       -0.0118941665 -0.034709696 0.010653637 0.04608884
000330 b3 88 72 bd d6 47 16 bc 21 45 a2 bc da d8 d2 bc
       -0.059212398 -0.0091724 -0.019808354 -0.025738169
000340 8c 2e 45 3d e7 82 2f bd ad 15 e2 3c 1b 01 1a 3d
       0.048140094 -0.042849448 0.027598226 0.03759871
000350 5c e0 c6 bc f5 9e ef 3c 43 e4 d8 bc e8 b2 fa 3a
       -0.024276905 0.029250601 -0.026476031 0.0019126805
000360 c3 58 2b bd 35 04 aa bb 94 6a 3d bd 36 ab 4e bd
       -0.041832697 -0.00518849 -0.04624422 -0.05045625
000370 42 cf 51 bd 0c 8c 25 ba 46 01 07 bc 62 c9 23 bd
       -0.051223047 -0.0006315119 -0.00824005 -0.039986975
000380 8e 9a 41 3d 2d 31 78 bc 8a ad f8 3c e2 2e 43 bd
       0.047266535 -0.015148443 0.030356187 -0.047652133
000390 60 bf e0 3c ae 2d 80 bc bf f2 c8 bc c1 86 3b 3d
       0.027435005 -0.015646782 -0.024529813 0.04578281
0003a0 9a b4 10 bc cc 2c 28 bd 44 ef 39 bd 85 10 ba bc
       -0.008832121 -0.041058347 -0.045394197 -0.022712955
0003b0 f2 f7 c7 bc e2 60 51 3d 34 0c 34 3d d9 b5 c8 bc
       -0.024410222 0.051117785 0.04395695 -0.024500774
0003c0 aa f9 4a bb a8 51 0c bc 1c a1 40 39 0b 4c 36 bc
       -0.0030971565 -0.00856439 0.00018370565 -0.0111265285
0003d0 a7 ee 69 bc 67 9f dd 3c 10 02 a1 bb a9 aa 86 3c
       -0.014278091 0.027053548 -0.004913576 0.016438799
0003e0 c0 f1 a1 3c 69 66 32 3d 0b 90 d1 bc 72 03 46 bd
       0.019768596 0.043554697 -0.02558138 -0.04834313
0003f0 f3 b9 0e 3d c5 d9 ad bc 61 61 3c 3d f2 f3 86 bd
       0.034845304 -0.021222005 0.045991305 -0.065894976

bias f4 [64]
000000 ef 6b db bb 19 64 68 bd 51 09 21 bd e0 a0 5e bc
       -0.0066962163 -0.056736086 -0.039315525 -0.01358816
000010 7b 7c fc 3c 60 40 61 3d 04 4f c9 3b 6f 81 89 bc
       0.030821076 0.054993033 0.0061434526 -0.016785352
000020 77 fc 5a bd be ec 6e 3d 2b f2 6a 3d d1 e7 6b 3d
       -0.053463425 0.058331244 0.057359856 0.057594124
000030 77 f8 c6 3c 64 60 64 3c 5d 52 63 3d cb 1f 18 bd
       0.0242884 0.013938997 0.05549847 -0.037139695
000040 81 65 32 3d 75 6e 22 bc db a8 00 bd 1e cb 46 3d
       0.043553833 -0.00991403 -0.031411033 0.04853355
000050 d8 a1 f0 bc 18 d2 95 bb b0 cf 0c 3d 0e 2a 44 3d
       -0.029374048 -0.0045721643 0.034377754 0.04789167
000060 d2 29 7d 3b 1d 7d 7b 3b 28 77 e3 bc f9 37 3b bd
       0.0038629663 0.0038374134 -0.027766779 -0.045707677
000070 31 4a 1e bc 10 87 4c bd 4c a4 6c 3d c4 f6 d4 bc
       -0.009661243 -0.049933493 0.057773873 -0.025996573
000080 d0 6a 21 3b 13 2c 62 3d 80 37 6e bd 1c 79 c3 3c
       0.0024630316 0.055217814 -0.058158398 0.02386146
000090 50 87 4e bc 34 c1 b9 3c 93 41 54 bd 9e 52 5f bd
       -0.012605503 0.022675134 -0.05182035 -0.05452215
0000a0 68 0b 2b bd d3 79 26 3d 8b 44 fe bc 2b 52 a4 bc
       -0.041758925 0.040643524 -0.031038543 -0.020058712
0000b0 70 39 42 bd 90 e7 2c 3c f1 27 f7 bc a7 54 0a bd
       -0.047418058 0.010553256 -0.030170413 -0.033772137
0000c0 c7 c8 3f 3d 2c ba 26 3d 23 25 55 3c 1e f0 d6 3c
       0.046822336 0.04070489 0.013009342 0.026237544
0000d0 66 22 68 bd cb 05 26 bd bd 3c 2b bd ec 14 69 bd
       -0.05667343 -0.04053287 -0.04180597 -0.05690472
0000e0 27 46 5b bc 23 6f bb 3c c6 3a 5c bb dd 5b 45 bd
       -0.013383425 0.022880143 -0.0033604368 -0.04818331
0000f0 85 d1 8f 3c b9 a6 12 bd 53 5d 6f bd 71 77 98 bc
       0.017555961 -0.03580353 -0.05843861 -0.018611642

weight f4 [64]
000000 7f 2e 81 3f 61 91 81 3f 6a 93 7b 3f c6 be 7c 3f
       1.0092314 1.0122491 0.9827181 0.987286
000010 4d 30 80 3f 20 b1 7f 3f 75 f8 7d 3f 86 ac 81 3f
       1.001474 0.99879646 0.9920724 1.0130775
000020 13 16 7d 3f ae af 7f 3f 54 a4 81 3f 15 29 80 3f
       0.9886181 0.9987744 1.0128274 1.0012537
000030 54 cf 81 3f b9 42 7c 3f 67 32 81 3f 1f 6a 81 3f
       1.0141397 0.9853931 1.0093507 1.011051
000040 ae 6b 82 3f 07 00 81 3f 0d 98 81 3f 1f 43 80 3f
       1.0189111 1.0078133 1.0124527 1.0020484
000050 32 52 7d 3f 0e 11 7e 3f 1c ed 7d 3f 7b 54 7e 3f
       0.98953545 0.99244773 0.99189925 0.99347657
000060 b2 2f 81 3f 12 c6 7f 3f 6a 3e 82 3f ec 1e 80 3f
       1.009268 0.99911606 1.0175297 1.0009437
000070 8e d2 81 3f 6b 41 81 3f bc db 7f 3f 33 26 81 3f
       1.0142381 1.0098089 0.99944663 1.0089782
000080 7e 97 7d 3f 7f e3 7e 3f 3e f1 7e 3f 0a 77 82 3f
       0.99059284 0.9956588 0.99586856 1.0192578
000090 81 dd 7f 3f 19 b2 7e 3f 3a 12 82 3f 65 4f 7f 3f
       0.99947363 0.99490505 1.0161812 0.9973052
0000a0 04 b4 7c 3f 42 e0 82 3f da c7 80 3f a9 9b 7c 3f
       0.9871218 1.0224688 1.006099 0.9867502
0000b0 d7 35 7c 3f d2 05 7f 3f 3f 22 81 3f 54 f9 80 3f
       0.98519653 0.99618256 1.0088576 1.0076089
0000c0 6d 62 7e 3f 14 15 7f 3f 43 54 81 3f f1 1b 80 3f
       0.99368936 0.9964154 1.010384 1.0008527
0000d0 ba bc 7b 3f b3 66 80 3f 55 93 7d 3f 6d 0c 7e 3f
       0.9833485 1.0031341 0.99052936 0.9923771
0000e0 6f c1 7d 3f ba df 7d 3f 05 c0 7c 3f 3c 5d 83 3f
       0.9912328 0.99169505 0.987305 1.0262828
0000f0 ba eb 80 3f 62 71 80 3f e0 61 7f 3f ae 0a 7f 3f
       1.0071938 1.0034602 0.9975872 0.9962567

bias f4 [64]
000000 33 16 56 bc 9f 4f 24 3c 1f 32 8e bc 8e 2f a8 3b
       -0.013066816 0.010028749 -0.017357884 0.005132622
000010 34 44 d1 3b 1a ae 18 bc b5 c0 b6 bc 6d 5a 48 bc
       0.0063863043 -0.009318853 -0.022308687 -0.01222859
000020 24 7d 05 bb 16 ae 2d bc f7 3e 0e bc 90 8e 5c 3b
       -0.002036878 -0.010600587 -0.008682004 0.003365431
000030 fb fe c9 3b ed eb df 3b 13 09 31 bb 42 bf 59 bb
       0.0061644292 0.0068335445 -0.0027013465 -0.003322557
000040 6c c5 8b ba d3 5b 8d 3b 48 3c 73 3b cd 0d 99 3a
       -0.0010663695 0.004313925 0.0037114788 0.0011677087
000050 f3 ad 06 3c a2 ba 4c 3c 9b 8e ea bb 82 4a 07 3b
       0.008220184 0.012495669 -0.007158113 0.0020643775
000060 bb 82 f7 ba 4c a3 06 3c 8f 2e a4 3b 7e 63 88 3b
       -0.0018883565 0.008217644 0.005010433 0.004162251
000070 9b bb 7f 3c 3a 73 7e bb ae b9 35 bc 92 84 e2 bc
       0.0156086935 -0.0038826005 -0.011091633 -0.027651105
000080 c9 09 f7 bb 8c 43 0a 3c 53 9a 1f bc 17 e0 a1 bb
       -0.0075390083 0.008438956 -0.009741384 -0.0049400437
000090 5f ad 77 bc c7 0b 48 3a 7b 55 b9 3b ab 78 56 bc
       -0.0151170185 0.00076311495 0.005655942 -0.013090293
0000a0 28 78 cf ba ad fb 59 bc b6 8b d6 bc 75 0c 46 bc
       -0.0015828656 -0.013304633 -0.026189666 -0.012087931
0000b0 a9 97 87 bc a3 93 64 bb ec 89 41 bb 92 95 45 3c
       -0.01655181 -0.0034878037 -0.002953167 0.012059586
0000c0 21 34 61 bc 1a 76 09 bc ec 47 eb bb 01 98 92 3a
       -0.013745339 -0.008389974 -0.0071802046 0.0011184217
0000d0 75 f1 1a bc 21 7f b4 b9 ef 79 0f bc 7c 26 7a bc
       -0.009456982 -0.00034426994 -0.008757099 -0.015267964
0000e0 e8 3c 81 3b c0 15 3c bc 34 96 7d 3b 72 5d 19 bc
       0.003944028 -0.011479795 0.0038694264 -0.009360658
0000f0 56 a4 9e bc d6 ee a3 bc c3 fd 64 3b a5 46 d9 bb
       -0.01936547 -0.020011347 0.0034941293 -0.006630736

running_mean f4 [64]
000000 5f a7 74 be b3 96 d2 3d 24 e8 22 3f 9b 1e 4a 3e
       -0.23891972 0.1028265 0.6363547 0.19738238
000010 9f 5c 8c 3e 24 b4 20 be f4 a0 31 bd 95 80 96 3e
       0.27414414 -0.15693718 -0.043366387 0.29394975
000020 e9 3e 63 be 60 88 b9 be b1 0a eb 3e d9 b7 11 3f
       -0.22191967 -0.36236858 0.45906594 0.56921154
000030 17 97 14 3d a3 a2 e3 b8 5f aa a6 be dc c1 1f 3f
       0.036276903 -0.00010854497 -0.32551858 0.6240518
000040 fc 0f 82 bf c4 6e 22 be d9 7a a9 be 28 39 7b bd
       -1.0161128 -0.15862566 -0.33101538 -0.061333805
000050 1a db 75 3e 09 a5 c2 bc 5a ac 02 3f 13 77 e1 be
       0.24009362 -0.023760336 0.5104424 -0.4403616
000060 83 42 5f 3d 8d 75 48 be 30 a1 ba be 64 66 b2 be
       0.05450679 -0.19576092 -0.364511 -0.34843743
000070 eb 3f ef be eb 29 e3 be 1b 31 af be e3 df 0a 3d
       -0.46728453 -0.44367918 -0.34217152 0.03390492
000080 bf b0 26 3f b3 a5 96 3f dd a6 92 be b5 ac 9c 3e
       0.65113443 1.1769317 -0.28642932 0.30600515
000090 4f 4b 9a 3d 90 97 95 bd 46 1d 0c bf de dd d7 be
       0.07533895 -0.07304299 -0.5473217 -0.4216146
0000a0 52 2d 03 3e b8 21 26 bf a6 1f 9f be 7f e2 03 3f
       0.12810257 -0.648952 -0.31078833 0.5151748
0000b0 c7 ac 44 3e 57 87 02 3f 3d 11 ad be fa af a7 3d
       0.19206534 0.5098776 -0.33802214 0.08187862
0000c0 07 7f ee bc 44 99 fc 3c 1f 13 26 bf 36 78 53 be
       -0.029113306 0.030834801 -0.64872926 -0.20651326
0000d0 a4 11 89 bd 43 81 23 bd a5 c1 64 bd cf f1 8a be
       -0.06692818 -0.039918195 -0.055848736 -0.2713761
0000e0 fe 3e 47 be 99 4d a5 3e 7f 75 96 bd c1 7f 4a 3e
       -0.19457623 0.32285765 -0.07346629 0.19775297
0000f0 d6 60 1d bd 15 54 e8 bd 30 01 f7 3e 56 3c b6 3d
       -0.038422428 -0.113441624 0.48243093 0.08898227

running_var f4 [64]
000000 f9 87 bb 3e 49 9b 14 3e 54 5c 02 3f 98 96 0e 3e
       0.36627176 0.14512362 0.5092213 0.13924634
000010 0a 60 27 3e 82 10 69 3e 3f 67 62 3e 62 a1 e6 3d
       0.1634523 0.22760203 0.22109698 0.1126125
000020 97 a2 42 3e 0b 08 14 3e 4d db 02 3e ba 03 26 3e
       0.19007336 0.14456193 0.12778969 0.16212359
000030 1a 0b c5 3e 29 e7 1c 3e 48 aa 0f 3e ad 50 c4 3e
       0.38485032 0.15322556 0.14029801 0.383428
000040 da 26 e6 3e 1b 07 89 3e 10 75 66 3e 59 65 61 3e
       0.44951516 0.26763234 0.22505593 0.22011317
000050 fc cb 95 3e 06 f4 58 3e 44 37 db 3e fc a4 29 3e
       0.2925719 0.21186838 0.42815602 0.16566843
000060 28 90 4a 3e ad 80 3e 3e e9 49 58 3e 30 50 1c 3e
       0.19781554 0.18603773 0.21121944 0.15264964
000070 4f c4 28 3e 28 25 59 3e 43 ee de 3e f5 98 55 3e
       0.16481136 0.2120558 0.43541154 0.2085913
000080 d7 d9 c8 3e d2 b8 0a 3f 67 2a ae 3e a4 c2 67 3e
       0.392287 0.54188263 0.34016725 0.22632843
000090 47 84 01 3e 84 92 e3 3d 00 58 29 3e 3e 4a 7d 3e
       0.12648116 0.1111193 0.16537476 0.24735352
0000a0 11 ff 4f 3e 41 a9 85 3e 5f 74 61 3e e3 b1 32 3f
       0.20312144 0.26105693 0.22017048 0.69802684
0000b0 28 67 46 3e 45 b8 a7 3e 26 45 65 3e 34 15 99 3e
       0.19375288 0.32757774 0.2238966 0.2989899
0000c0 51 46 ae 3e e8 d2 f5 3d 8f 3e b0 3e 0a 34 87 3e
       0.34038022 0.12003118 0.34422728 0.2640689
0000d0 6c 12 53 3e b9 aa b9 3e 19 33 f3 3e 93 51 16 3e
       0.20612496 0.36263064 0.47499922 0.14679556
0000e0 9c 41 40 3e b2 01 9b 3e df bd 98 3e f2 e1 8d 3e
       0.18775028 0.3027473 0.2983236 0.27711445
0000f0 7f 2b 4f 3e e1 74 a2 3e 72 d8 81 3e 6c 24 8b 3e
       0.20231436 0.31729797 0.25360447 0.27176225

weight f4 [128, 64, 3, 3]
000000 93 b5 a8 3c cf 96 33 bb bb b6 41 3c 91 da 82 bc
       0.020594394 -0.0027403121 0.0118233515 -0.015973361
000010 a5 39 ad 3c c1 56 e0 3c a7 6d b3 bc 31 12 3f bc
       0.021145651 0.027385117 -0.021902872 -0.011662052
000020 ef 9a f7 bb 1f 01 1f bd 2b f7 e9 bc 6d 23 b4 bc
       -0.0075563113 -0.03881943 -0.028560242 -0.021989549
000030 57 9f 7f 3c 1f 7f d4 bc 0e 66 0a bc 11 d4 43 3c
       0.015601954 -0.025939522 -0.008447183 0.011952416
000040 6c a1 a0 bb 1c 76 22 3d 42 96 3d bc f2 a1 28 3c
       -0.0049020555 0.03966342 -0.011571469 0.010292517
000050 b0 2c 0c 3d ea dc 05 3d 09 85 cf 3c bf 9e 03 3d
       0.034222305 0.032681383 0.02533199 0.032133814
000060 fd b2 5c 3c c0 ae a8 3c ec 3e 94 bc 80 3a 09 3d
       0.0134704085 0.02059114 -0.01809641 0.033503056
000070 f3 a0 2b 3d 71 aa c2 3c 7a a9 8a bc 1a 22 c1 3c
       0.04190154 0.023762913 -0.016926516 0.023575831
000080 d9 88 57 bd 84 98 90 3b 12 7d 04 bd f2 bb cc 3c
       -0.052620742 0.0044127125 -0.03234584 0.024991963
000090 97 60 e0 3b 97 69 e7 3c 3e 7f f4 3c f0 ba 50 bc
       0.006847452 0.028248591 0.02984583 -0.012739882
0000a0 89 fd 05 bd 2a d1 03 bb 7c 15 40 3d 40 c8 dc bb
       -0.032712493 -0.0020113685 0.04689549 -0.006737739
0000b0 20 fe 73 3c b0 be 92 bc f0 c3 0d bd c5 62 35 3c
       0.014892131 -0.017913193 -0.03461069 0.011070912
0000c0 06 39 21 3d 93 ba f4 bc 9d 83 2c 3c 69 1b 62 bc
       0.039361022 -0.029874122 0.010529426 -0.01380048
0000d0 48 d9 2c 3c 2d a5 74 bb 19 d9 98 bc d8 33 c8 3c
       0.010549851 -0.0037329898 -0.018658208 0.024438784
0000e0 93 c9 d1 3c 31 5a 10 3d 5e ad 03 3c 35 a4 07 bd
       0.025608813 0.035242263 0.008036939 -0.033115584
0000f0 b7 6c 32 3d c9 ce e9 bc 59 74 5d 3c 18 34 8e 3a
       0.04356071 -0.028540986 0.013516509 0.0010849265
000100 bf f2 d1 3c 49 81 27 3d 66 cf 06 bd d6 b5 0a 3c
       0.025628446 0.04089478 -0.032912634 0.008466205
000110 8a 16 d0 bb b1 d9 33 3d 17 84 2d bc 55 69 2a bc
       -0.006350343 0.04390878 -0.010590575 -0.01040109
000120 81 17 e6 3b 51 2c 44 bc e7 14 45 bc b6 0b 64 bb
       0.007021845 -0.0119734565 -0.012028909 -0.003479702
000130 3b 8e e7 3c 47 62 9b 3c a4 30 42 bd ac 1d 8e bb
       0.028266063 0.01896776 -0.04740967 -0.0043370333
000140 5c 66 42 3d 6e f8 01 bd 1a 1c d3 3a 15 bf 94 3c
       0.0474609 -0.03173106 0.0016106397 0.018157521
000150 b9 d3 b2 bc b3 11 0a bc 0d 1b 72 bc 18 d8 19 bc
       -0.021829473 -0.008427071 -0.014776957 -0.0093899
000160 1f b9 71 bc dd 0c cd bc 5a 2a 04 3d 2c 86 11 bb
       -0.014753609 -0.025030548 0.032266952 -0.0022205217
000170 df 92 2e bd 21 f8 97 bc 1c 76 f8 bb 62 24 e8 bb
       -0.042620536 -0.018550934 -0.007582439 -0.0070844153
000180 49 bd 33 bd ae 8a 31 3b 86 4f 0a bd e9 16 04 bd
       -0.04388169 0.0027090716 -0.033767246 -0.03224841
000190 69 fe 43 bc 4c 90 a6 bc 35 0c 1a bd a5 ea 22 bd
       -0.011962512 -0.020332478 -0.037609298 -0.039774556
0001a0 a9 32 2e bb f3 17 96 bc 9e fc 57 3b a0 54 0e bb
       -0.0026580489 -0.018321967 0.0032956968 -0.002171792
0001b0 31 0d f4 3c af 51 cf bc fd ed 46 bd 71 9e f8 3c
       0.029791446 -0.025307504 -0.048566807 0.030348988
0001c0 66 78 43 bc e1 5d da bc 15 d9 42 b9 fb 7d 1e bc
       -0.011930561 -0.026656093 -0.00018582151 -0.009673591
0001d0 1c e2 e7 3a 23 e3 2f bc a1 38 f8 39 53 08 c4 bc
       0.0017691287 -0.010735306 0.00047344438 -0.02392975
0001e0 ca e8 60 3b 8e 56 37 bd 1b 04 c3 3c 1c 29 48 3c
       0.003431844 -0.04476028 0.023805669 0.0122168325
0001f0 10 b0 03 bd 2c 70 47 3c d7 82 c4 bc c0 a2 d7 bc
       -0.03215033 0.01217274 -0.02398817 -0.026322722
000200 18 4b e1 3c 8b bc b6 ba b5 f8 2c bb 72 7c cd 3b
       0.027501628 -0.0013941688 -0.0026393358 0.0062709386
000210 a2 27 c5 bc e2 0a 2b bb 12 fe d6 3c 96 39 a2 3b
       -0.02406675 -0.0026099016 0.026244197 0.0049507124
000220 ae 1e b5 3c a7 b3 cd bc 5c 89 36 bc 80 6f 82 3c
       0.022109356 -0.025110079 -0.011141147 0.015922308
000230 25 8b 25 bd 6c 83 f3 ba 97 45 3c bb c7 96 2e 3b
       -0.0404159 -0.0018578595 -0.0028728002 0.0026640163
000240 fe 96 2b bd 3d b2 42 bd 78 be 08 bd 90 c6 42 3c
       -0.041892044 -0.047533263 -0.03338477 0.011888161
000250 21 89 11 3c 3d 52 84 3c f6 34 5f bc 03 a9 51 3c
       0.008882792 0.016152496 -0.013623467 0.012796643
000260 de 3c 32 bd b7 7e 53 bb f8 c7 cb 3c c8 4a d2 bc
       -0.04351508 -0.0032271573 0.024875626 -0.025670424
000270 a0 4a 80 bc ae 21 ad bc fa 6b a9 bc fa eb ec bc
       -0.015660584 -0.021134224 -0.02068137 -0.028921116
000280 73 96 31 bb 86 2e 03 3d d4 9b 6f bb df 7f b4 3b
       -0.0027097731 0.03202679 -0.0036561387 0.0055084075
000290 f0 bd 78 bb 69 79 5e bc 72 4a df 3b f3 36 ae 3c
       -0.0037955008 -0.013578751 0.0068142945 0.021266436
0002a0 67 ca 95 bc 67 9d 8d ba ec c6 97 3c 0a 35 25 3c
       -0.01828499 -0.0010804356 0.01852747 0.010083446
0002b0 cb 07 ac 3b 3a eb ce 3c ee ec dd 3c b9 d4 0c bc
       0.0052499524 0.02525865 0.027090516 -0.008595639
0002c0 11 2a 0e bd 66 06 46 bc 57 3d c8 bc e5 e0 db bc
       -0.034708086 -0.012086486 -0.024443312 -0.026840637
0002d0 36 4f 90 bc 7c f5 ca 3c fa b6 03 bc e2 7a 99 3c
       -0.017615896 0.02477526 -0.0080392305 0.018735353
0002e0 08 63 79 bc 0a f2 14 3d 75 f9 bd 3c 4b 49 1e 3c
       -0.015221365 0.03636364 0.02319024 0.009661029
0002f0 dc d3 3b bc 7a 21 c2 bc a4 49 04 bd eb cb 1f 3d
       -0.011464085 -0.023697603 -0.03229679 0.03901283
000300 af 29 a0 3c f0 a2 94 bb 3e 85 96 3c 02 7d e2 3c
       0.019551126 -0.004536025 0.018374082 0.027647499
000310 13 51 23 3c 58 ae c0 bc 1e 26 36 bb 27 de 0c bd
       0.00996806 -0.023520634 -0.0027793716 -0.03439155
000320 d0 d9 c6 bc af ae 2a 3d 40 18 09 3d 07 39 11 bd
       -0.024273783 0.041670498 0.033470392 -0.035454776
000330 10 41 38 3d 5c 4d 44 bc ef b2 19 bc be 2c 0d 3c
       0.044983923 -0.011981335 -0.00938104 0.008616624
000340 0c 4e aa bc 26 2b 98 bc 3f 55 e0 bc f4 f3 6d bc
       -0.020789169 -0.018575262 -0.027384399 -0.014523495
000350 b3 8e 10 bd f7 59 2e bd 74 7f 6c 3d 32 f5 a8 3b
       -0.03529234 -0.042566266 0.057738736 0.0051561827
000360 60 18 da 3b a3 cf d9 3c fe 8c d8 bc 65 a8 af 3b
       0.0066557378 0.026588267 -0.026434418 0.0053606504
000370 a3 9e 80 bc 6b 2d 0a bc 7c 55 66 bc ba 7f d4 3c
       -0.015700644 -0.00843368 -0.014058467 0.025939811
000380 51 e6 cf bc af 86 18 bc 34 20 ec bb 91 85 69 3d
       -0.025378378 -0.009309455 -0.0072059873 0.057012144
000390 96 4a 4b bc fb e4 d8 3c 18 f8 2e 3d 9e 56 0c bc
       -0.012407919 0.026476374 0.04271707 -0.008565573
0003a0 5f 54 09 3d cd 84 3e 3d 2f fb f9 bc 43 8a fe 3c
       0.03352773 0.046513367 -0.030515281 0.031071788
0003b0 57 e8 87 bc 94 dd a1 bc 5a 67 f4 3c 83 e9 81 bc
       -0.01659028 -0.019758977 0.029834438 -0.015858417
0003c0 01 c5 ed 3b 0c 47 3c bc 41 11 94 bc 06 56 42 3d
       0.0072561507 -0.011491548 -0.018074634 0.04744532
0003d0 fc cf f4 3c 16 ff 40 3c ab d9 0c 3d 31 0a 1c bd
       0.02988433 0.011779567 0.03438727 -0.038095657
0003e0 84 93 03 3d 04 25 2b bb 19 53 af ba 6b cc c8 3c
       0.032123104 -0.0026114592 -0.0013376205 0.024511537
0003f0 d3 34 d7 3c 78 8e 73 bc 66 14 41 3b 19 37 a2 bc
       0.026270306 -0.01486551 0.0029461621 -0.019801663

bias f4 [128]
000000 ca 9f 88 ba ba 23 ac bc 4c 22 ed 3c e9 c1 d3 bc
       -0.0010423597 -0.02101313 0.028947018 -0.0258493
000010 61 4c 26 bd d7 40 e9 bb 6c a7 cf 3b a7 82 bf 3a
       -0.040600184 -0.007118325 0.006337097 0.0014611081
000020 c5 24 11 bd cf cc 4d 3c 22 04 07 3b 4b a5 b1 bc
       -0.035435457 0.012561037 0.0020601829 -0.021685263
000030 7f 6f 80 3b 71 e4 75 3c 2f 5f 00 3b 99 e7 10 bc
       0.0039195414 0.015008078 0.0019587984 -0.00884428
000040 c7 f6 9d bc af 81 09 3d 82 a6 d2 bb d0 f7 6c 3c
       -0.019282712 0.03357094 -0.0064285407 0.01446338
000050 73 25 0e bc 40 d4 af bc f6 ab 94 bc 0c 70 24 3d
       -0.008675921 -0.021463513 -0.018148404 0.04014592
000060 b0 ac 14 bd cf 8b f7 bc 29 c6 20 bd 1d 73 cd 3c
       -0.0362975 -0.030218033 -0.03925148 0.025079304
000070 74 03 18 3d 4e 72 b5 3c c2 a2 36 3c 87 ed 87 bc
       0.03711267 0.022149231 0.011147203 -0.016592754
000080 73 39 b8 3b 25 a4 0b 3d 48 93 07 3c a2 76 02 bd
       0.005622083 0.034092087 0.008274861 -0.03185142
000090 8b a8 17 3c 2c d3 a5 3c 66 ee f6 3a f5 0a 41 3c
       0.009256492 0.020242296 0.0018839359 0.0117823975
0000a0 c8 b3 22 bc 49 b1 ef 3c 34 96 19 bd b6 2a 43 bc
       -0.0099305585 0.02925934 -0.03749676 -0.011912039
0000b0 a8 04 7c bb 8a 3a 97 bc a1 c1 c9 3c e8 87 04 bb
       -0.0038454924 -0.01846053 0.024628462 -0.0020222608
0000c0 b7 33 02 3d f6 be 15 3c ca f1 bd 3b f3 57 10 bc
       0.0317876 0.009139767 0.005796646 -0.008810031
0000d0 15 3b 1c 3c 1b 5b ee bb 92 8e 04 bd c2 75 52 bc
       0.009535571 -0.007274044 -0.03236253 -0.012845458
0000e0 78 65 46 3c 1a c9 82 3c 7c 15 4a 3b 2e 21 d5 3b
       0.012109153 0.015965033 0.003083556 0.0065041995
0000f0 40 0b 25 bd d5 9a 21 bd ac 5c 9a 3c 80 27 ab bc
       -0.040293932 -0.0394543 0.018843018 -0.020892859
000100 2c f9 cc 3c 51 55 00 bd ff 24 33 3c 2c b3 80 bb
       0.025021158 -0.031331364 0.0109341135 -0.003927609
000110 7c 28 c0 bc f9 93 3d bc 09 88 51 bb c9 39 f8 bc
       -0.023456804 -0.011570924 -0.0031971952 -0.030300992
000120 7c c3 0c 3d e9 74 7d 3c da 33 25 3d 6e 7c 09 bd
       0.034366116 0.015469768 0.040332653 -0.03356593
000130 82 44 29 3d e4 32 1b bd 5e 67 1a bd 80 e5 dd bc
       0.0413251 -0.03789033 -0.037696235 -0.027086973
000140 99 03 e5 bc db 2b b7 bc fe 16 f2 bb c4 3e f0 3c
       -0.027955817 -0.02235978 -0.007387995 0.029326804
000150 a6 e2 b0 3c ca f2 41 bc bb 2a 9b 3c 39 71 2e bc
       0.02159245 -0.011837671 0.018941274 -0.010647112
000160 55 a4 03 3d 48 6d 26 bc be 76 26 3c 95 77 73 3c
       0.03213914 -0.010157891 0.010160146 0.014860054
000170 57 af b2 bb 4b 4a be 3c 4e 47 25 bd d4 c7 f0 bb
       -0.005453031 0.023228785 -0.040351205 -0.00734804
000180 6a ce 83 3c c4 96 07 3c dd cc 31 3c 42 51 32 bc
       0.016089637 0.008275691 0.010852066 -0.010883631
000190 8e df 0c 3c d4 68 dd 3a 33 3c 51 3c 3e ec 0d 3d
       0.0085982215 0.0016892203 0.0127707 0.034649126
0001a0 f9 d8 16 bd d9 37 7e 3c 19 82 92 3c bf 9b 06 3d
       -0.036828015 0.015516245 0.017884301 0.032863375
0001b0 ab 6b fe 3c a1 0a 0e bd c7 2f b2 bc 38 28 f2 3c
       0.0310572 -0.034678105 -0.021751298 0.029560193
0001c0 12 c2 e0 bc eb f2 26 3d 97 f0 e7 3c ae 17 0c bd
       -0.02743629 0.04075901 0.028312964 -0.03420227
0001d0 cd 12 46 3c ef 13 39 3c 97 18 15 3d 9f ef 1e bc
       0.012089443 0.011296256 0.036400404 -0.009700685
0001e0 48 c3 a1 3b f7 02 c7 3b 2c bb 09 bd 79 32 57 bc
       0.0049366094 0.0060733515 -0.033625767 -0.013134592
0001f0 b4 ff 23 3d 0f a6 0c 3a 40 c1 24 3c 94 d0 06 ba
       0.04003878 0.0005365321 0.01005584 -0.0005142775

weight f4 [128]
000000 4a 57 88 3f e1 72 88 3f f4 54 89 3f c4 f3 88 3f
       1.0651639 1.0660058 1.0729051 1.0699391
000010 6e d2 87 3f 5f e7 88 3f 3e ad 89 3f f0 57 89 3f
       1.0611093 1.0695609 1.0755994 1.0729961
000020 94 5d 87 3f ee ca 89 3f c5 8d 8a 3f b4 5e 89 3f
       1.0575433 1.0765054 1.0824515 1.0732026
000030 bc 13 88 3f 3c 5a 88 3f c3 d6 87 3f 99 b8 89 3f
       1.0631022 1.0652537 1.0612415 1.075946
000040 20 d5 88 3f 64 d8 88 3f 8f c4 87 3f 70 1b 88 3f
       1.069004 1.0691037 1.060686 1.0633373
000050 d6 d1 8a 3f 5e fb 89 3f 3c 62 88 3f de 3b 89 3f
       1.0845287 1.0779836 1.0654979 1.0721395
000060 2e 07 88 3f 30 13 89 3f 16 f6 89 3f 0c 48 87 3f
       1.0627191 1.070898 1.0778224 1.0568862
000070 3c 8d 88 3f dc f5 88 3f 96 bd 88 3f c6 95 87 3f
       1.0668101 1.070003 1.0682857 1.0592582
000080 90 15 89 3f a6 70 87 3f 9e 79 87 3f 77 40 89 3f
       1.0709705 1.0581253 1.058399 1.0722798
000090 9c 01 87 3f 0e 62 8c 3f ca 1a 88 3f 3e 0e 88 3f
       1.0547366 1.0967424 1.0633175 1.0629346
0000a0 ae 01 88 3f 65 51 89 3f dc 61 88 3f 88 49 88 3f
       1.0625513 1.0727965 1.0654864 1.064744
0000b0 dd 63 89 3f 14 60 89 3f a0 d8 89 3f 46 f9 88 3f
       1.0733601 1.0732446 1.0769234 1.0701072
0000c0 6f 02 88 3f bd a9 88 3f 54 d6 88 3f 59 ad 89 3f
       1.0625743 1.06768 1.0690408 1.0756027
0000d0 ba 56 88 3f 36 b3 88 3f ec 7f 88 3f cd f3 87 3f
       1.0651467 1.0679691 1.0664039 1.0621277
0000e0 f7 10 8b 3f 3f 08 87 3f 09 64 87 3f 66 89 89 3f
       1.0864552 1.0549392 1.0577403 1.0745056
0000f0 25 d3 88 3f 34 ee 88 3f 20 8f 87 3f bf de 87 3f
       1.0689436 1.0697694 1.0590553 1.0614852
000100 59 e2 8a 3f aa 1e 89 3f d6 04 89 3f dd da 88 3f
       1.0850326 1.0712483 1.0704601 1.0691792
000110 24 98 8a 3f b1 92 87 3f dd ff 88 3f b1 4a 8b 3f
       1.082768 1.0591642 1.0703083 1.0882169
000120 1e 52 89 3f cd 8b 88 3f 9e f0 88 3f dd 38 89 3f
       1.0728185 1.0667664 1.069843 1.0720478
000130 5f f7 87 3f bf 06 89 3f 0e 21 89 3f 4b e4 88 3f
       1.0622367 1.0705184 1.0713212 1.069467
000140 18 63 88 3f d4 9c 89 3f 35 33 8a 3f 6a 88 88 3f
       1.0655241 1.0750985 1.0796877 1.066663
000150 74 59 88 3f fc db 87 3f a0 2f 87 3f fa 09 8a 3f
       1.0652299 1.0614009 1.0561409 1.0784295
000160 94 3b 88 3f 54 e5 89 3f c7 61 89 3f c5 b3 87 3f
       1.0643182 1.077311 1.0732964 1.0601736
000170 a8 a9 86 3f af 9e 89 3f 9a 7f 88 3f 93 f3 89 3f
       1.0520525 1.0751551 1.0663941 1.0777458
000180 24 b4 87 3f ef db 89 3f 26 fc 88 3f 16 cd 87 3f
       1.060185 1.0770243 1.070195 1.0609462
000190 51 43 88 3f 82 a4 87 3f 73 5c 87 3f 2e ab 87 3f
       1.0645543 1.0597079 1.0575088 1.0599115
0001a0 48 98 89 3f 55 21 88 3f b0 20 88 3f 32 a3 88 3f
       1.0749598 1.0635172 1.0634975 1.0674803
0001b0 9a ae 87 3f f9 b2 89 3f 58 df 88 3f a9 93 88 3f
       1.0600159 1.0757743 1.0693159 1.0670062
0001c0 66 1a 89 3f 1b e1 88 3f f0 03 8b 3f e5 5d 8b 3f
       1.0711181 1.0693697 1.0860577 1.0888029
0001d0 e6 69 88 3f 1c 22 89 3f 87 8a 89 3f 68 64 8a 3f
       1.0657318 1.0713534 1.07454 1.0811892
0001e0 21 d4 8a 3f 7c d6 88 3f 43 f8 8a 3f 4f 21 88 3f
       1.0845987 1.0690455 1.0857013 1.0635165
0001f0 e3 af 88 3f 8d b2 86 3f c7 cb 88 3f ee d9 87 3f
       1.0678676 1.0523239 1.0687188 1.0613382

bias f4 [128]
000000 d4 b2 2d 3d 0d e4 1e 3d 27 67 1e 3d ca bd 23 3d
       0.042406872 0.038791705 0.038672592 0.03997592
000010 e7 fd 1b 3d 7b bf 1e 3d ac cf 3a 3d c8 62 07 3d
       0.038083937 0.03875683 0.045608208 0.03305319
000020 5b e9 07 3d a3 25 21 3d 9b cf 22 3d 80 9b 13 3d
       0.03318153 0.039342534 0.03974877 0.03603697
000030 6a 8f 23 3d 85 35 34 3d ba 05 08 3d ae bc 37 3d
       0.039931692 0.043996353 0.033208586 0.044857673
000040 74 8a 12 3d c2 2c be 3c 16 39 0b 3d ba 81 05 3d
       0.03577657 0.023214702 0.03398999 0.03259442
000050 f1 0e 27 3d 2c 97 02 3d fc d9 d2 3c e0 09 3c 3d
       0.040785734 0.03188245 0.025738709 0.045907855
000060 e5 53 11 3d 89 25 36 3d cd 3a dd 3c 06 08 d3 3c
       0.0354804 0.04446939 0.027005577 0.025760662
000070 15 5f 11 3d 67 e3 f5 3c 9b 5e ec 3c 75 06 03 3d
       0.035491068 0.03001566 0.028853705 0.03198858
000080 15 21 15 3d cd 84 28 3d 0d f1 1f 3d 50 65 06 3d
       0.036408503 0.041142274 0.039048243 0.032811463
000090 c2 a7 20 3d ff de 32 3d 93 38 28 3d 6d 1a df 3c
       0.039222486 0.043669697 0.04106958 0.02723428
0000a0 da fa 16 3d 8e 29 f7 3c 7a 04 3c 3d 3e a1 0f 3d
       0.036860324 0.030171182 0.045902707 0.035065882
0000b0 e2 51 23 3d c5 a6 05 3d 2e 3f bd 3c b7 e1 17 3d
       0.03987301 0.032629747 0.023101415 0.037080493
0000c0 f4 59 ff 3c 44 60 bc 3c 0c db e5 3c 45 2d e3 3c
       0.031170823 0.022995122 0.028058551 0.027731547
0000d0 e9 e1 00 3d 17 c6 36 3d fd 6a f8 3c 30 89 f2 3c
       0.031465445 0.044622507 0.030324453 0.029606432
0000e0 01 67 58 3d 06 38 37 3d 75 33 f4 3c b0 ea 33 3d
       0.052832607 0.044731162 0.029809693 0.043924987
0000f0 99 24 05 3d 9a 29 10 3d cd d1 0a 3d 57 de 03 3d
       0.032505605 0.035195924 0.033891488 0.03219446
000100 6a ab 00 3d 74 36 f3 3c fb 90 0e 3d 1f 5e 23 3d
       0.031413473 0.029689051 0.034806233 0.039884683
000110 de 79 0d 3d 03 19 2a 3d f6 e7 16 3d 75 7f 2e 3d
       0.03454005 0.04152776 0.03684231 0.04260202
000120 ad 5c 0c 3d 83 21 20 3d fc 3c 2b 3d 86 2c 15 3d
       0.03426807 0.03909446 0.041806206 0.036419414
000130 09 90 1d 3d 4e 3d 0a 3d 94 7e 2a 3d 0f 27 32 3d
       0.03846744 0.03374987 0.04162462 0.04349428
000140 23 70 34 3d 99 95 0c 3d 67 a7 04 3d 1e 09 36 3d
       0.044052254 0.034322355 0.03238621 0.04444229
000150 1f 72 05 3d a6 d8 02 3d a7 29 f7 3c 87 da 11 3d
       0.032579537 0.031944893 0.030171229 0.035608795
000160 b0 3a e4 3c f4 ad 13 3d b5 cf f3 3c 02 93 13 3d
       0.027860016 0.036054567 0.029762128 0.03602887
000170 ae bc 05 3d 42 e1 08 3d 53 ce 05 3d 1c 9c 38 3d
       0.032650642 0.033417948 0.03266747 0.045070753
000180 52 c2 13 3d ed 00 12 3d a3 6b 26 3d 1a 8a dd 3c
       0.03607399 0.035645414 0.040629994 0.027043391
000190 a1 63 2d 3d 43 df 06 3d 4e 78 fa 3c 53 56 9b 3c
       0.04233134 0.032927763 0.030574944 0.018962061
0001a0 ab 25 48 3d 18 a6 1c 3d 6e dc 07 3d ed e9 20 3d
       0.048864048 0.038244337 0.033169203 0.03928559
0001b0 2f fe 1c 3d 3d 1a 2d 3d ab 8a 0a 3d c0 39 1e 3d
       0.038328346 0.04226135 0.03382365 0.038629293
0001c0 52 28 1d 3d 04 d5 da 3c 6d db 52 3d fd 19 22 3d
       0.03836853 0.026712902 0.051478792 0.039575566
0001d0 67 67 38 3d 49 2d 04 3d a1 c7 04 3d 8c 15 16 3d
       0.045020487 0.03226975 0.032416943 0.036641642
0001e0 79 73 21 3d 17 f2 f5 3c 84 df 49 3d 12 e7 18 3d
       0.039416764 0.030022664 0.049285427 0.03732974
0001f0 0f c5 26 3d 6f a8 12 3d 90 78 38 3d ae eb ff 3c
       0.040715273 0.035805162 0.045036852 0.03124031

running_mean f4 [128]
000000 f5 2b ae bd 31 76 b1 be a0 95 7f be 30 8e a6 be
       -0.08504478 -0.34660485 -0.24959421 -0.32530355
000010 55 f1 93 3c 1d ae 93 3e e4 c7 63 3d 56 4f 43 3e
       0.018059412 0.28843775 0.055610552 0.19073233
000020 77 c7 c7 3e a4 92 59 3e 83 df a8 3d 57 a7 20 3f
       0.39019367 0.21247345 0.082457565 0.6275534
000030 9b 92 b1 3e df a2 19 3e 88 3f f6 bd 10 d3 5b be
       0.34682164 0.15003537 -0.120238364 -0.21467233
000040 8e 81 c2 3d 3a b4 65 be d8 ad ff bd 14 0a b3 be
       0.09497367 -0.22432032 -0.1248433 -0.34968626
000050 37 78 1e 3d 58 80 ab be 93 06 8d be c9 a6 03 bc
       0.038688865 -0.33496356 -0.27544078 -0.00803537
000060 9d 0a 1f bf 54 b2 7e 3e ab 79 0d bf a5 8b c6 3d
       -0.6212557 0.24872714 -0.55263776 0.09694604
000070 ab 7e aa 3d 89 e7 03 3e fc 93 ba be 9a 7a 19 bf
       0.08324941 0.12881292 -0.36441028 -0.599527
000080 34 ef 9f 3e 84 50 a7 3e 25 81 3d bf 1f da 04 bf
       0.31237185 0.32678616 -0.74025184 -0.51895326
000090 1f 6f fc 3e d8 26 fb 3e 94 93 7f 3e 02 bb 01 bd
       0.4930353 0.49053073 0.2495864 -0.031672485
0000a0 56 6d 29 bf 9b 01 91 3d 4d 7e 23 bf 3a 3c f4 3e
       -0.6618246 0.07080384 -0.63864595 0.477022
0000b0 38 f4 b2 bb 94 2d 21 3e d8 89 07 3f 0f 3a e6 be
       -0.005461242 0.15740043 0.5294471 -0.4496617
0000c0 10 7f ae 3d 47 8e e6 3d 58 05 0b bf 8a f6 a6 3e
       0.08520329 0.11257606 -0.5430503 0.3260997
0000d0 b6 05 30 bd 6b 6e 98 be 3d e8 4d 3f 3b 32 0a 3f
       -0.042974196 -0.29771742 0.8043249 0.53982896
0000e0 bf 8e dd 3d f3 46 de bc da 29 25 3e 82 a4 56 be
       0.10818242 -0.02713344 0.16129246 -0.20961192
0000f0 c0 f9 a0 be 16 35 13 3f 68 26 d2 bd ff d2 44 bf
       -0.31440544 0.5750288 -0.10261232 -0.76884454
000100 3c 77 b9 3e ac e1 90 bd 12 27 ed 3c b1 14 4b 3e
       0.3622378 -0.070742935 0.028949294 0.19832112
000110 0a 0a bf 3e 30 c5 2b 3e 7b b2 f4 bc 42 75 ba 3e
       0.37312347 0.1677444 -0.029870262 0.36417586
000120 bd 5d 52 3e 93 78 e6 3e d9 22 cb bf 34 73 1f 3f
       0.20543571 0.45013866 -1.587001 0.6228516
000130 47 a1 97 be 51 08 3a bf 30 63 f5 3d 31 71 23 be
       -0.29615232 -0.7266894 0.11981809 -0.15961148
000140 d6 b4 9b 3e 38 51 86 3d 7b 18 02 3d ed 53 fe be
       0.30411404 0.0655846 0.031761628 -0.49673405
000150 f8 5f 9d 3e 0f 9a 80 3d 96 d8 12 be 51 d5 0e 3d
       0.3073728 0.06279384 -0.14340433 0.034871403
000160 6a 18 51 3e cc 66 9b 3e 2e 15 97 3e 4a 42 f6 3e
       0.2041947 0.30351865 0.29508346 0.4809745
000170 d6 1b 9d 3d fe 2e 9f bf a6 97 29 be a2 b0 12 3e
       0.07671325 -1.2436216 -0.16561756 0.14325193
000180 b3 47 03 bf 90 ea 51 be b3 5f c6 be 11 b4 11 3e
       -0.5128128 -0.20499635 -0.38744888 0.14228846
000190 43 c1 10 bf ab 0f ae 3e d7 ef 14 bf 61 65 de be
       -0.56544894 0.3399633 -0.58178467 -0.4343672
0001a0 ea 65 04 3e 69 1c 21 3e 29 08 f9 3e 77 ac 61 3e
       0.12929502 0.15733494 0.48639038 0.22038446
0001b0 7c c4 25 bf ef 66 2d 3e e6 9a 0c ba 77 82 64 bf
       -0.64752936 0.16933797 -0.0005363658 -0.89261574
0001c0 ed 4e 53 bf e9 9e 73 bd ef 65 1c bf 82 51 c6 3d
       -0.82542306 -0.05947772 -0.6109304 0.09683515
0001d0 39 68 24 3d bb e0 69 bf 8d 1d ef be f6 55 09 bf
       0.040138457 -0.91358536 -0.46702233 -0.5364679
0001e0 b9 fe d2 be 76 89 bd be 24 3d 1b bc 52 eb 1c be
       -0.41209963 -0.37018937 -0.009475026 -0.15324143
0001f0 bb 37 84 bf 7b d9 53 bd 32 4b 52 3f 3c af 49 3f
       -1.0329508 -0.051721077 0.8214599 0.7878301
